data_generators/c-rnn-gan.pytorch/models/c_rnn_gan_d.pth (torch, 151561 bytes, 9 tensors)

lstm.weight_ih_l0 f4 [256, 6]
000000 5a cc 7d bf 97 dd 8e bf 1d 40 2b bf 88 6e 34 bf
       -0.9913994 -1.1161374 -0.66894704 -0.7048116
000010 1c df 76 bf 3e dd 28 c0 a6 9e 80 bf ab 9e 24 bf
       -0.9643419 -2.6385036 -1.0048416 -0.6430461
000020 f5 90 5d bf 03 98 91 bf 65 f3 7e bf f0 ae 9a bf
       -0.8654931 -1.1374515 -0.9959014 -1.2084637
000030 19 33 a5 bf 35 ac 10 3f 3b c5 7e bf fe cf 96 bf
       -1.2906219 0.5651277 -0.995197 -1.1782224
000040 75 3a ff be 8e 3c cc 3e e2 fe 95 bf 20 3b ce bd
       -0.49849287 0.3988995 -1.1718409 -0.10069871
000050 f2 82 77 bf 94 9a ad bf 9d 28 f3 be c3 8a 0d c0
       -0.9668418 -1.3562799 -0.47491923 -2.2115943
000060 47 a2 c9 bf 58 67 27 bf a5 e4 b4 bf c7 3f af bf
       -1.5752648 -0.65392065 -1.4132277 -1.3691338
000070 2c 87 88 bf 6d 59 d6 3f 5a b8 96 3f 10 43 39 bf
       -1.0666251 1.674604 1.177501 -0.72367954
000080 12 ec b2 3f 08 b6 c5 3f a2 6b 6a 3f 46 e9 6b 40
       1.3978293 1.5446177 0.91570485 3.6861129
000090 09 6c 15 be c6 c8 80 3d 7a bb 9f 3c 39 8f bf bd
       -0.14591993 0.062882945 0.019498575 -0.093534894
0000a0 9a 29 5e be 8d f2 39 bf 1f 44 d2 be 23 aa e7 be
       -0.21695557 -0.7263573 -0.41067597 -0.45246992
0000b0 6c 10 14 bf b0 c6 0f bf c8 48 f2 be ec 60 b6 be
       -0.5783756 -0.5616255 -0.47321153 -0.3562082
0000c0 a7 61 ad 3f 83 7f 3f 3f 7e c3 99 3f 7c fa 89 3f
       1.3545426 0.7480394 1.2012784 1.0779567
0000d0 95 55 93 3f 5e 98 9f 3f 7d bb b6 3f d9 cc 6e 3f
       1.1510493 1.2468374 1.4275967 0.9328132
0000e0 ff 44 8c 3f 52 d1 3d 3f a3 67 8a 3f 1a 30 94 3e
       1.0958556 0.7414752 1.0812877 0.2894295
0000f0 50 9a 1d bf 88 40 16 bf 48 2a 13 bf f0 80 f6 be
       -0.6156359 -0.58692217 -0.5748639 -0.48145247
000100 9a 99 03 bf 80 0d 9b bd b5 f5 b6 3f ef cd 4c 3f
       -0.5140625 -0.07570934 1.4293734 0.8000173
000110 09 3e 97 3f 01 21 ab 3f 8e 4a 84 3f 6f 63 3b 3f
       1.1815807 1.3369447 1.0335252 0.731986
000120 23 12 b9 3e 7d ce cd 3f 10 02 c8 3e 5a 23 53 3f
       0.3614665 1.607864 0.39064074 0.8247582
000130 0b f1 4b 3f 98 46 b1 40 12 92 9c bf cc c7 01 3e
       0.7966468 5.5398674 -1.2232077 0.12673873
000140 34 ac 54 bf c3 6c 16 bf 24 4c 49 bf 90 15 33 40
       -0.8307526 -0.5875971 -0.78631806 2.798191
000150 cd a2 5b 3e 94 f0 b2 3e bf 7f 38 3f ce d7 fd 3e
       0.21448822 0.34949172 0.72069925 0.49578708
000160 16 cd 06 3f b2 01 90 be 72 c2 4f c0 88 5b 92 bf
       0.52656686 -0.28126293 -3.246243 -1.1434183
000170 13 77 53 c0 6b 0b 7c c0 e4 06 30 c0 36 49 0a bf
       -3.3041427 -3.938197 -2.7504206 -0.5401796
000180 3b 9f f5 be e2 92 92 be be 56 1e bf d9 70 49 bf
       -0.47973046 -0.28627688 -0.6185111 -0.78687817
000190 79 0d 12 bf 0c a3 59 bf 80 40 de be bb a3 85 be
       -0.5705181 -0.85014415 -0.43408585 -0.2610148
0001a0 84 aa bc be 88 62 04 bf 62 e3 e5 be 30 f6 14 bf
       -0.36848843 -0.51712847 -0.44900042 -0.5818815
0001b0 af 84 3e bf c4 a8 1e bf c2 12 3a bf ba 6a 21 bf
       -0.7442121 -0.61976266 -0.7268487 -0.63053477
0001c0 62 40 3b bf e7 c6 2a bf f9 d8 1a bf 6f 29 0e bf
       -0.73145115 -0.6670975 -0.60487324 -0.5553197
0001d0 0d 43 0c bf 4e ee e6 be de be f9 be bd 48 a2 be
       -0.5478981 -0.45103687 -0.48778433 -0.3169612
0001e0 64 32 d6 bf 60 a4 80 bf ac 08 bd bf d6 4b f5 bf
       -1.6734128 -1.0050163 -1.4768271 -1.9163768
0001f0 9c 69 c2 bf 3f 61 07 c0 8e d5 fe be eb ba fc be
       -1.518848 -2.1153104 -0.49772304 -0.49361357
000200 e6 ea 37 bf ed 60 2f bf 37 5c 22 bf fa 1b 93 bf
       -0.718428 -0.6850727 -0.6342196 -1.1492913
000210 95 12 b4 be 54 53 e5 be c3 cf c0 be 93 34 2f bf
       -0.35170427 -0.44790137 -0.3765851 -0.68439597
000220 6b 9d 2c bf a9 7c 1f bf a8 d2 d4 bf cf 1c 01 c0
       -0.674277 -0.6229959 -1.6626787 -2.0173833
000230 d7 a1 d6 bf 62 c0 e8 bf 0d 51 c3 bf 35 33 c4 3f
       -1.676814 -1.818371 -1.525911 1.5328127
000240 3c 2c b1 bd 7a 97 23 bc 35 4f 1a bd 3e fb 80 be
       -0.08651015 -0.009984845 -0.037673194 -0.25191683
000250 77 a7 2b be 52 63 b1 be f5 c8 1f bf 29 0f 33 bf
       -0.16763102 -0.34646088 -0.6241601 -0.6994501
000260 e7 02 3a bf 79 71 1b bf db c1 43 bf b9 04 8a bf
       -0.7266068 -0.6072002 -0.76467675 -1.0782691
000270 bb d5 ec bd e0 ac 3c be 1d 3d 81 bd e4 e0 20 bd
       -0.11564203 -0.18425322 -0.063104846 -0.039276972
000280 32 1f ca bd 45 2f 39 c0 9f da f7 be 85 49 1a bf
       -0.09869231 -2.89351 -0.48408982 -0.6026843
000290 a8 16 ee be 36 ab 10 bf 5f 37 23 bf 4d fb 09 bf
       -0.4650166 -0.5651125 -0.63756365 -0.5389908
0002a0 b6 49 7f bf 23 d1 a7 bf f7 4e ac bf a2 6e d5 bf
       -0.9972185 -1.3110698 -1.3461598 -1.6674387
0002b0 9a 4a 85 bf 75 7d a3 40 a6 4e 9c bf e6 93 71 3f
       -1.0413392 5.1090646 -1.2211502 0.943663
0002c0 24 25 86 bf 7c ba d6 bf ff 5d d0 be 1b 80 f5 be
       -1.0480084 -1.677566 -0.40696713 -0.479493
0002d0 6a ef 1b bf 26 05 e8 be f0 e4 16 bf e6 02 0a bf
       -0.6091219 -0.45316428 -0.5894308 -0.5391067
0002e0 76 8a ea be b3 e4 fb be ae 1d ec be 8b 53 07 bf
       -0.45808762 -0.4919792 -0.46116394 -0.5286185
0002f0 12 a9 34 bf 5c e9 e4 be e2 7c f5 be 75 c0 96 be
       -0.7057048 -0.4470929 -0.4794684 -0.29443708
000300 b5 60 b9 be 6f 6e e6 3d 46 61 9b be fc 92 6a be
       -0.36206594 0.11251532 -0.3034765 -0.22907633
000310 4d e3 7c be 0f 85 bd bf 88 ce 63 bf f2 e5 d5 bc
       -0.24696083 -1.4806231 -0.88987017 -0.026110623
000320 f6 ab df be 9d 6e 05 bf 9e 9e fe be ba b4 c4 bf
       -0.43685883 -0.5212191 -0.4973039 -1.5367653
000330 ab df 73 3e d6 a2 c1 3e 5c 85 9b 3e 0d 26 05 3d
       0.23815791 0.37819546 0.30375183 0.03250699
000340 f3 88 96 3e e1 0a 91 c0 7c 57 8c bf 40 d7 d8 3f
       0.2940136 -4.532578 -1.0964198 1.6940689
000350 aa 9a 55 bf 37 a8 a1 bf 08 e7 8f be e1 f3 ae be
       -0.83439124 -1.262946 -0.2810595 -0.3417044
000360 2d b8 9b 3e 99 ae 83 3e 51 f2 21 be 1a 9d 8e bd
       0.30413952 0.25719145 -0.15815093 -0.069635585
000370 23 d5 75 3e 29 40 06 40 fc f4 6d bb 2b de 3b 3e
       0.24007086 2.097666 -0.0036309352 0.18346469
000380 4a 63 f1 bd b7 9e ba bd 4e 0e 1b be bc c9 32 bf
       -0.11786516 -0.09112304 -0.15142176 -0.6983907
000390 5b e9 9e bf ad b3 ab 3f c6 f6 5f bf 05 4f bb bf
       -1.2414964 1.3414208 -0.8748592 -1.463349
0003a0 39 d7 ed be 65 a2 c0 bf ef 0b 4e 3d 95 19 cd 3e
       -0.46453264 -1.5049559 0.05030435 0.4005858
0003b0 3f 34 30 bd d4 42 32 be f4 cf e2 3d 6b d5 8b bd
       -0.043018576 -0.17408305 0.1107482 -0.068278156
0003c0 4e b3 26 bf 70 36 36 bf bb e5 0f bf 85 5d 2a bf
       -0.6511735 -0.71176815 -0.56209916 -0.6654895
0003d0 0a 0c 3b bf 7d fd e9 be ec e5 60 3f dc 75 cc 3f
       -0.73065245 -0.4570121 0.8785083 1.5973468
0003e0 bb 3d 9d 3f f0 5a a9 3f b6 f2 80 3f 3a 51 89 bf
       1.2284464 1.3230877 1.007407 -1.0727913
0003f0 5f 42 bf be 51 08 2a bd ac f9 20 be ab 12 9b be
       -0.37355325 -0.041511837 -0.15720242 -0.3028768

lstm.weight_hh_l0 f4 [256, 64]
000000 cc 13 e8 3e 58 5a 22 3f 34 35 f3 3f c5 c1 b2 bf
       0.45327604 0.63419104 1.9000611 -1.3965384
000010 6a 33 27 be 2a 15 3f be 59 b6 de 3f ea e4 a2 bf
       -0.16328207 -0.18660417 1.7399398 -1.2726109
000020 5e a9 7e 3f f9 31 07 40 13 dc 7b 3f 6b 97 27 c0
       0.99477184 2.112425 0.9838268 -2.6186168
000030 fc a5 12 c0 27 07 9b bf 2e 4c c8 3d 8e 8b d4 3f
       -2.291381 -1.2111558 0.09780155 1.6605089
000040 eb 88 6d 3f 28 49 91 be d5 43 87 bf 0d b3 f1 3f
       0.92787045 -0.28376126 -1.0567576 1.8882767
000050 f5 c2 31 bf cc 12 26 bf 4a e7 11 3f 42 d1 ba bf
       -0.69438106 -0.6487243 0.56993544 -1.459511
000060 85 b7 86 bf c2 bd e3 be 8d 63 a2 3f 28 60 b5 3f
       -1.0524756 -0.4448071 1.268663 1.416997
000070 57 61 3d 40 f8 38 03 40 8d 1a 71 bd 33 39 97 bf
       2.9590662 2.050352 -0.05886321 -1.1814331
000080 bf 0e d2 3e 90 c3 9d 3f c8 96 a5 bf 74 c7 d6 3f
       0.41026875 1.2325306 -1.293664 1.6779618
000090 33 17 37 40 ce 1a 16 3f 49 7a d5 bf 13 f5 68 3f
       2.860791 0.5863465 -1.6677943 0.90998954
0000a0 38 f8 88 bf 31 5d f4 be a0 88 2e 3f 1a 3e 99 bf
       -1.070075 -0.4772735 0.68177223 -1.1972077
0000b0 50 f3 c8 3e 47 1c 84 3f 70 ca 88 3f 53 fc d8 3e
       0.39248133 1.032113 1.0686779 0.42380008
0000c0 74 ff 7e 3f ff 3d 0a bf 6d ad 73 3f cc fc 39 3f
       0.9960854 -0.5400085 0.951865 0.7265136
0000d0 d1 82 36 40 ab 99 65 bf 3e 4d 3e bf fd 5f 0d c0
       2.8517344 -0.89687604 -0.7433661 -2.2089837
0000e0 de 84 84 3f 67 c3 36 bf 42 8c 24 bf 6e 3e 3e bf
       1.0353048 -0.7139191 -0.64276516 -0.7431401
0000f0 0c 98 11 bf 9c 11 3b 3f f5 ec 39 3f bf 2f 3b 40
       -0.5687263 0.73073745 0.7262719 2.9247892
000100 18 6b 1d be 56 f2 be be b9 48 09 bf 19 85 83 3d
       -0.15372884 -0.37294263 -0.5362659 0.06421871
000110 64 02 35 3f f9 01 1c bf 16 90 eb bd 56 40 50 bf
       0.7070677 -0.6094051 -0.115020916 -0.8134817
000120 8b 6a 75 3e 2a b5 20 3f ab 3b 1b 3f 17 33 4f bf
       0.23966424 0.62776434 0.6063792 -0.8093733
000130 b0 12 d1 bf 61 09 90 3f 40 e7 57 bc aa a5 2b 3f
       -1.6333828 1.1252862 -0.013177693 0.6704966
000140 5f eb 8b 3e 1c 69 8c be 77 a2 09 3f 2f 96 0a 3e
       0.2732801 -0.27423942 0.53763527 0.13533853
000150 bd c8 fb 3b 50 8e a6 bd 7d 66 40 3f 1a d4 21 3e
       0.007683842 -0.08132613 0.75156385 0.15803567
000160 fe 49 84 3e 39 55 2f 3d 9d 0c d5 3c a1 46 3b 3f
       0.25837702 0.042805884 0.026006991 0.73154646
000170 04 1d 80 3e 1a a0 b4 3f 9a e4 ff 3e a3 21 33 bf
       0.25022137 1.4111359 0.49979097 -0.699732
000180 95 cf c6 bb 10 3d ae 3f f2 6b a7 be a2 b5 e4 bc
       -0.006067226 1.3612385 -0.32699543 -0.02791864
000190 c2 78 c4 3e 47 e6 76 3e c0 cb 00 bf 36 94 9b bf
       0.3837338 0.24111281 -0.503109 -1.2154605
0001a0 b0 f6 eb be 9e f1 03 3f b0 b3 cc 3d b3 0e 90 be
       -0.46086645 0.51540554 0.0999521 -0.28136215
0001b0 70 82 73 bf 7b 52 78 3e 53 3b e7 3d 91 53 92 be
       -0.95120907 0.24250214 0.11290612 -0.2857938
0001c0 1f 6f 8b bc ae 8a 98 bf a4 79 b0 3e 0c 90 9b 3e
       -0.01702076 -1.1917322 0.34467804 0.30383337
0001d0 6a 78 85 3e 6d 9b 2a be 08 8f 3b bd 96 04 10 bf
       0.2606843 -0.16660853 -0.045790702 -0.56257
0001e0 3f 39 d8 3f 54 a5 82 be e9 5a 81 be 60 61 8d be
       1.689247 -0.2551676 -0.2526467 -0.27613354
0001f0 f3 71 67 bd 25 71 40 bd d4 da 17 3f 51 57 e3 3e
       -0.056505155 -0.046982903 0.5931828 0.44402555
000200 6c 0f be bd 1f 47 cd be 2a 6f 2c 3f 5f ed 15 3e
       -0.09280285 -0.40093324 0.6735712 0.14641331
000210 9e df d6 3e 01 da 76 3f 30 91 16 40 15 0b ab 3e
       0.4196748 0.964264 2.3526115 0.33406892
000220 09 7a 2e 3f 8c bc 9a 3f fc 43 df be 87 78 83 3e
       0.6815496 1.208879 -0.43606555 0.25677893
000230 ee c5 49 bf f6 6b c2 be 99 11 21 bf ad 8b d0 3f
       -0.7881764 -0.37972993 -0.62917477 1.6292626
000240 3b 76 fc 3f 08 fb 79 bf a8 84 3f 3e 43 f6 f9 be
       1.9723581 -0.9764867 0.18702948 -0.48820695
000250 c9 6d 31 bf 9d e8 a0 bf e3 9b 4d 3f 95 c4 a8 3f
       -0.69308144 -1.2570988 0.8031599 1.3184992
000260 a3 77 45 bf 1a da 43 bf 41 ad 6f 3f ef 8e e3 be
       -0.77135676 -0.7650467 0.9362374 -0.44444987
000270 14 35 04 3e 6f 2b 7a 3f 09 7c 2f 3f bb 54 f7 3e
       0.12910873 0.97722524 0.6854864 0.48306832
000280 b2 40 6f 3f ea 84 4d be c6 82 60 3d 51 a8 51 3f
       0.9345809 -0.20070234 0.054812215 0.81897455
000290 77 1e e1 3f d4 1f 8a 3f 6c 36 1c bf 80 76 06 3f
       1.7587422 1.0790963 -0.6102054 0.52524567
0002a0 57 3f 1a 3f b2 5d 76 3e 80 07 38 3f 58 2e a7 bf
       0.602529 0.2405918 0.71886444 -1.3061018
0002b0 cf e4 50 3f f0 21 00 40 55 f4 e2 3f c7 ab 59 3f
       0.81599134 2.0020714 1.7730814 0.85027736
0002c0 f4 84 8e 3f f4 3d 04 3e 0d a4 e7 be 45 d5 e9 3f
       1.1134324 0.12914258 -0.45242348 1.826821
0002d0 d4 b8 c4 3f 4f 84 82 bf e5 30 d3 bf 08 a5 2a be
       1.5368905 -1.0196627 -1.6499296 -0.16664517
0002e0 b9 e1 43 3f 95 21 6f bf ce 20 a6 bf 22 e7 86 bf
       0.765163 -0.9341062 -1.2978761 -1.0539286
0002f0 50 e4 97 3e 08 ce 14 3f 3a 9a b5 3e 4e 3f c1 3f
       0.29666376 0.5812688 0.35469228 1.5097444
000300 ef 02 4e bf b4 85 94 be 82 a4 1d 3f 51 4f fd 3d
       -0.80473226 -0.29008257 0.61579144 0.12368644
000310 94 43 99 3e b4 6b e2 be f6 36 a0 3f 64 ec 0b be
       0.2993437 -0.44222796 1.2516773 -0.13664395
000320 eb 8f 19 3f ac ce 27 3f 8c 1f c4 bc 1c bb 5a 3d
       0.59985226 0.6554973 -0.023940824 0.053401098
000330 8f 06 35 bf 19 59 ee be c0 63 49 bf f3 3c 8a 3f
       -0.7071313 -0.4655235 -0.7866783 1.079985
000340 04 a8 82 3f 1f 65 86 bf 5b fc 44 3e 7a 3d 12 bf
       1.0207524 -1.049961 0.19236891 -0.57125056
000350 d2 5d 14 bf c8 5a 79 bf 1b c7 4a 3f 9d 07 8e be
       -0.5795566 -0.97404146 0.7921006 -0.27740183
000360 e9 2c 1c bf 62 7f 6e bf 18 30 3b 3f 7e 0b 69 be
       -0.6100603 -0.9316312 0.7312026 -0.2275829
000370 89 f5 8b 3f e2 c9 58 3f a1 3a 51 3f e0 99 e3 3d
       1.0934306 0.8468305 0.81730086 0.11113334
000380 b1 9f 71 3f 5c 82 a5 bc 1a 06 35 bf 40 9a 89 3e
       0.94384295 -0.020203762 -0.70712435 0.26875496
000390 c6 c4 b1 3f 19 68 79 3f a4 20 67 be 6a 9d d0 3e
       1.3888175 0.97424465 -0.22571045 0.40745097
0003a0 e7 c2 eb 3e 44 67 85 be 4e f5 4d 3f 79 1c 93 bf
       0.46047136 -0.26055348 0.8045243 -1.1493064
0003b0 d3 76 10 3f 5c aa 97 3f 9a 22 b3 3f c7 09 1e 3f
       0.5643131 1.1848865 1.3994935 0.6173367
0003c0 8f 4f 62 3f 8e 23 31 be 25 c4 a2 be 8d fd 72 3f
       0.88402647 -0.1729872 -0.3179027 0.9491814
0003d0 bf 25 a2 3f cf 7c 58 bf 56 8b 8a bf e1 23 18 bf
       1.2667769 -0.8456544 -1.0823772 -0.59429747
0003e0 54 25 43 3e 92 92 90 bf e0 bc 81 bf 32 8a 8d bf
       0.19057208 -1.129473 -1.0135765 -1.1057799
0003f0 e5 14 03 3f bd 92 29 3f e9 fe 1e 3f 0c fd 88 3f
       0.5120376 0.6623953 0.6210771 1.0702224

lstm.bias_ih_l0 f4 [256]
000000 78 b2 fa bf b7 e8 91 bf 2b b0 80 bf dd ac 84 bf
       -1.9585714 -1.1399144 -1.0053762 -1.0365254
000010 9e 5e 8b bf cf 9e 29 3f 59 5c 44 3e b2 07 1e bf
       -1.088825 0.6625795 0.19175853 -0.6173049
000020 c0 00 b0 3f 7a 05 aa 3f 85 fb 17 bf 01 9c 84 3f
       1.3750229 1.3282921 -0.59368163 1.0360109
000030 0f b7 03 40 78 62 78 c0 5b 4a 66 bf cd 47 85 bf
       2.058048 -3.88101 -0.8995721 -1.0412537
000040 54 bc 8f be 21 a3 a8 be 90 99 71 bf ae 55 18 bf
       -0.2807337 -0.32936957 -0.9437494 -0.59505737
000050 9f af 10 c0 8d d9 00 bf f8 02 81 bf c2 60 d4 be
       -2.260719 -0.50331956 -1.0079031 -0.4148007
000060 3c cf 56 3d d8 00 54 bf b5 22 d2 bf ff 71 2c bf
       0.052443728 -0.8281379 -1.6416842 -0.67361444
000070 19 1d 42 40 fe 98 4e be ee ff cf be bd 4e 17 bf
       3.033026 -0.2017555 -0.40624946 -0.5910452
000080 55 08 68 bf 88 37 d3 bf 09 74 e4 bf da c7 aa bf
       -0.90637714 -1.6501322 -1.7847911 -1.334224
000090 d6 30 f1 3f 3b 99 62 be b7 50 3c bf 59 10 19 3e
       1.8843029 -0.22128765 -0.7356066 0.14947642
0000a0 9e 2c 14 bf f2 49 8d bf 10 6e 51 bf e1 ad 6d bf
       -0.5788058 -1.1038191 -0.8180857 -0.92843443
0000b0 a6 44 a0 bf 5f f6 8c be 44 9f bd 3e 68 9d a3 be
       -1.252095 -0.27531716 0.37035573 -0.3195603
0000c0 a3 34 b9 3e 78 ef 3b 3f 87 23 1c bf e1 76 70 be
       0.3617297 0.73412275 -0.6099171 -0.23482849
0000d0 95 d1 7c 3f d4 e5 69 be ae 56 75 be 6c 49 36 40
       0.98757297 -0.22841579 -0.23958847 2.8482313
0000e0 7d 5a 93 3f 43 78 6e bf c7 47 2a be b5 3b 1e c0
       1.151199 -0.93152255 -0.16628943 -2.4723942
0000f0 07 6d ff be 29 ff 25 bf 8c c1 1e bf 1a 50 00 3f
       -0.4988787 -0.6484247 -0.6201408 0.50122225
000100 60 63 82 be 1b cd c6 bf 22 91 b4 bf 7f fa f3 be
       -0.25466442 -1.5531343 -1.4106791 -0.4765205
000110 fa 9c ba be a7 00 99 3f 4e 3b 19 3f f4 c1 61 bf
       -0.3644789 1.1953324 0.59856117 -0.88186574
000120 e6 b6 8f bf 28 2d 05 3f 81 9d 38 bf d5 9e 30 bf
       -1.1227691 0.5202203 -0.7211533 -0.6899236
000130 f1 23 f3 3f 82 ed 8e bf d0 f1 7c bf 11 f2 44 3f
       1.8995343 -1.1166232 -0.98806477 0.76931864
000140 50 f8 34 3f e6 97 24 3f bf ff c4 be ea e0 17 bf
       0.70691395 0.6429428 -0.3847637 -0.59327567
000150 5b 8e 4b 3f 54 73 49 3f 12 50 78 3e 92 ef 42 bf
       0.7951409 0.786916 0.24249294 -0.76146805
000160 5b 59 0f 3f 75 27 24 bf 3e 72 45 3f 02 07 15 bf
       0.5599572 -0.64122707 0.77127445 -0.5821382
000170 c1 4d 08 40 06 b7 c8 bf 65 09 61 be e4 30 3f bf
       2.1297457 -1.5680854 -0.2197624 -0.74683976
000180 91 b7 0e 3f b2 81 a6 bf dd 11 26 bf 0c 3b 8f bf
       0.5574885 -1.300833 -0.6487101 -1.1189895
000190 f2 d0 81 3f c9 9c 06 3f 53 f3 50 bf 76 e1 51 be
       1.014189 0.52582985 -0.81621283 -0.20496163
0001a0 cf 13 35 bf 0b f3 0f 3f c1 a1 1f 3f 37 e6 2d 3f
       -0.7073335 0.5623023 0.6235619 0.67929405
0001b0 51 8c 90 bf 1c 09 14 3f b0 d0 2a 3f 09 65 52 bf
       -1.1292821 0.578264 0.6672468 -0.8218542
0001c0 a1 a3 26 3f d5 43 1d 3f 96 1c f5 be a3 03 1e 3f
       0.6509343 0.6143163 -0.47873372 0.617243
0001d0 74 fd 79 3f 89 17 1d 3f 76 03 de 3e 08 af 8e 3f
       0.97652364 0.61364037 0.43362015 1.1147165
0001e0 b4 89 50 3f 13 a0 20 3f 4b f6 20 3f 01 f5 f6 3e
       0.8146012 0.62744254 0.62875813 0.48233798
0001f0 13 4b cf be 3d db ba 3e 38 cd fe be 7e 54 d7 be
       -0.40486965 0.3649539 -0.49765944 -0.4205665
000200 d2 15 20 3f 32 4e e2 3e d1 51 67 be ac 86 07 3e
       0.62533295 0.44200283 -0.22589804 0.13234967
000210 d9 12 dd 3e 95 53 16 40 58 7c 32 bf eb fa d9 3e
       0.43178442 2.3488514 -0.69720984 0.42574248
000220 41 81 42 bf f7 bf 00 bf f7 d2 54 be ef ee d5 3e
       -0.75978476 -0.50292915 -0.20783602 0.41783854
000230 75 e2 c1 3f 95 4c 2c 3f 54 80 7f 3e d3 6c 52 bf
       1.5147234 0.67304355 0.24951297 -0.821973
000240 b4 27 3f bf bb 90 2d 3f fe 22 01 3e 42 05 bc bd
       -0.7466996 0.67798966 0.12611005 -0.0918069
000250 3e 33 34 3f c9 d4 33 3f 17 a3 d3 3c 86 3f 60 3f
       0.7039069 0.7024656 0.025834603 0.8759693
000260 84 a6 3e 3f b2 f0 1a 3e af 2f 04 bf c8 c2 21 be
       0.7447283 0.1513088 -0.5163526 -0.1579696
000270 06 38 4c bf b0 ae 0d bf aa 7c e1 be c6 8c 52 3e
       -0.79772985 -0.55344677 -0.44040424 0.20561513
000280 d4 c4 30 bf de 0c 78 3e dd 4d 8c be 0d f0 7d be
       -0.69050336 0.24223658 -0.27403155 -0.24798603
000290 c2 90 28 bf e4 85 24 bf 6c d1 ff 3d f1 72 31 bf
       -0.6584588 -0.642668 0.12491116 -0.6931601
0002a0 76 80 05 be dc a3 75 bf 03 48 4b bf 75 bf 3d 3f
       -0.13037285 -0.95953155 -0.79406756 0.74120265
0002b0 fa 70 5a bf 27 12 2d bf 63 77 3f bf 95 8c ae 3e
       -0.8532864 -0.67605823 -0.74791545 0.3409163
0002c0 24 b0 16 bf 69 23 7d 3f ab 05 9f 3e da 58 52 bf
       -0.5886252 0.98882157 0.31059012 -0.82166827
0002d0 73 52 17 bf 68 ed 59 3f 52 d5 3b 3f e8 c1 b3 3e
       -0.5911018 0.8512788 0.73372376 0.35108876
0002e0 cc e1 7a bf 49 6c 39 3f d1 b0 2c 3f fd 91 f8 3e
       -0.9800079 0.72430855 0.674573 0.4854888
0002f0 cf 76 aa be 0e 9a 29 bf fd c2 34 be 21 78 2a bf
       -0.3329377 -0.66250694 -0.17652507 -0.6658955
000300 40 c5 f9 be 32 ff c5 bf 03 c1 33 bf 01 f0 6f be
       -0.48783302 -1.5468504 -0.7021639 -0.23431398
000310 5e a9 73 bf 43 5f d0 3f 23 c4 d8 bf b7 7c 0e bf
       -0.9518031 1.6279072 -1.6934856 -0.5565905
000320 d9 f3 c0 3f 2e a8 3d be c6 77 1b bf 5d ca 64 3f
       1.5074416 -0.18521187 -0.60729635 0.8937128
000330 19 9d b3 3f 31 b1 82 bf e1 73 81 bf 96 c6 5f 3f
       1.4032317 -1.0210325 -1.0113488 0.87412393
000340 93 9a 8b bf 5b d4 a2 bf 59 fa e9 be 65 43 18 bf
       -1.0906547 -1.2721056 -0.45698813 -0.59477836
000350 ea 7d 13 c0 47 e8 5f bf d4 01 2c bf aa 00 14 be
       -2.3045602 -0.874638 -0.6719029 -0.14453378
000360 c2 1c 1a bf a6 48 45 bf 66 3b 24 c0 1f 28 3a bf
       -0.6020013 -0.7706398 -2.5661254 -0.7271747
000370 aa e9 15 40 2f fb 61 3e ab 48 19 bf 05 69 0f bf
       2.3423867 0.22068475 -0.5987651 -0.5601962
000380 ee 01 1e c0 59 f4 d6 be 90 36 0b c0 8f 72 65 bf
       -2.4688678 -0.41983297 -2.1752052 -0.8962793
000390 68 6f c5 3f 7b 03 f3 bf 8a c0 4d bf 06 64 28 bf
       1.5424623 -1.8985437 -0.80371916 -0.65777624
0003a0 47 a3 2e bf 54 da 25 c0 ab 69 3a c0 9c d2 ac bf
       -0.6821789 -2.5914507 -2.9126995 -1.3501773
0003b0 aa aa 9b be a7 2c ac bf c7 19 b5 bf d0 f1 9f bf
       -0.30403644 -1.3451127 -1.4148492 -1.249567
0003c0 d9 da 07 bf 03 fa 4c bf 36 01 f9 be 89 39 39 bf
       -0.5306831 -0.8006899 -0.48633736 -0.72353417
0003d0 ae cd 7a 3f ad 7f 11 bf 0e b2 6f bf 93 e0 a6 3f
       0.9797009 -0.5683544 -0.93631065 1.3037285
0003e0 50 30 53 3f fa 43 08 c0 67 64 1e bf 84 c5 22 c0
       0.82495594 -2.129149 -0.6187195 -2.5433054
0003f0 e6 bc e8 be 49 38 50 bf bc d2 cb bd 48 42 b2 3f
       -0.45456618 -0.81335884 -0.09952304 1.3926477

lstm.bias_hh_l0 f4 [256]
000000 62 98 05 c0 7f 40 a1 bf 68 f5 93 bf 5c 25 85 bf
       -2.0874257 -1.2597808 -1.1559267 -1.0402026
000010 ea 68 86 bf 9b 14 30 3f 89 81 f1 3d ca f7 11 bf
       -1.0500767 0.6878144 0.11792285 -0.5701872
000020 cf b9 ca 3f 2e 3d 93 3f b3 9b 25 bf 42 8a 89 3f
       1.5837954 1.1503046 -0.64690703 1.0745318
000030 18 91 02 40 2c 08 7c c0 ec 03 67 bf 5b d2 4d bf
       2.0401058 -3.9379988 -0.9024036 -0.803991
000040 e0 ec 5d be a1 56 5c be e1 35 45 bf ef 1f 18 bf
       -0.21672392 -0.21517421 -0.7703534 -0.59423727
000050 ca 66 0e c0 b0 b7 ca be 6f a3 5d bf 6a c7 c1 be
       -2.2250237 -0.39593267 -0.86577505 -0.37847453
000060 ff 67 0e 3d fe f9 48 bf 6c 5d cf bf eb a6 1b bf
       0.034767147 -0.7850646 -1.6200385 -0.6080157
000070 3d ee 4c 40 c1 2d 74 be a7 4b b5 be 63 f0 2c bf
       3.202041 -0.23845579 -0.3540928 -0.675543
000080 3b 16 51 bf d6 74 eb bf 2b 74 d6 bf f9 30 ba bf
       -0.81674546 -1.839503 -1.6754202 -1.4546195
000090 cf b6 eb 3f 42 2c 2e be b0 e5 3c bf f8 2e f3 bc
       1.8415164 -0.1700907 -0.73787975 -0.029685482
0000a0 43 e0 46 bf e4 d0 9e bf 91 ec 60 bf 55 65 45 bf
       -0.77685946 -1.2407498 -0.8786097 -0.77107745
0000b0 f0 55 a4 bf 8d 8d 8c be 6f e7 b1 3e f0 dc 86 be
       -1.2838726 -0.27451745 0.34746882 -0.26340437
0000c0 58 46 d7 3e d3 8a 46 3f 67 5e 12 bf 80 0f 26 be
       0.42045856 0.7755558 -0.57175297 -0.1621685
0000d0 44 1c 86 3f 39 62 92 be 16 17 87 be bc f3 35 40
       1.0477376 -0.28590563 -0.263848 2.8430014
0000e0 b1 5a 9e 3f c0 c2 76 bf 6a c0 2d be db 49 1b c0
       1.2371427 -0.96390915 -0.16967931 -2.4263828
0000f0 b5 78 a9 be 4e 7b 1f bf 36 aa e5 be 6b 68 ea 3e
       -0.33099905 -0.62297523 -0.44856423 0.4578279
000100 4a b4 25 be 31 90 d0 bf 00 44 a4 bf b5 e8 f8 be
       -0.16182056 -1.6294004 -1.2833252 -0.4861504
000110 b1 01 af be ec 6b 83 3f 68 c6 2e 3f 0d 4e 5d bf
       -0.34180978 1.026731 0.68271494 -0.8644722
000120 33 e8 98 bf 27 94 19 3f 5b 01 38 bf 38 7e 1b bf
       -1.1945862 0.5999169 -0.7187707 -0.6073947
000130 1f 7f dd 3f 57 e3 78 bf 84 77 89 bf 29 d3 32 3f
       1.7304419 -0.97221893 -1.0739598 0.69853455
000140 eb f4 19 3f 1e 0c 0c 3f da 98 0a bf 7f e7 ce be
       0.6013934 0.5470599 -0.5413948 -0.40410993
000150 4c 55 23 3f c4 e7 25 3f 51 06 95 3e 42 28 42 bf
       0.6380203 0.6480677 0.29106382 -0.7584268
000160 b5 99 36 3f 5b ef 21 bf 23 67 29 3f e0 48 3c bf
       0.7132829 -0.6325585 0.66173 -0.735487
000170 ae 6b 0c 40 b4 3a c7 bf 2e 35 96 be 32 d1 34 bf
       2.1940722 -1.556479 -0.29337448 -0.70631707
000180 80 6a 36 3f 29 a9 8d bf 89 40 3b bf 9c 63 91 bf
       0.71256256 -1.1067249 -0.7314535 -1.1358523
000190 a5 04 88 3f 7c 0c 35 3f 9d 94 33 bf 18 fc 01 bd
       1.0626417 0.70722175 -0.7014864 -0.031734556
0001a0 bc 88 57 bf c1 b4 db 3e fa ae 3b 3f fb b1 22 3f
       -0.84193015 0.42911342 0.7331387 0.63552827
0001b0 85 f6 9c bf 15 ff 2e 3f db 76 44 3f 03 e8 59 bf
       -1.2262732 0.68357974 0.7674386 -0.85119647
0001c0 7e 75 13 3f f6 a0 20 3f 03 60 e5 be ae bc 34 3f
       0.57601154 0.62745607 -0.44799814 0.706004
0001d0 3a 5a 83 3f a3 e9 39 3f 1f 79 e3 3e fb 93 87 3f
       1.026191 0.72622126 0.44428346 1.0592035
0001e0 03 5c 36 3f 2d 0c 1b 3f 36 01 34 3f d9 8b 04 3f
       0.7123415 0.60565454 0.7031435 0.5177589
0001f0 37 c8 04 bf 16 d2 e4 3e 55 a5 1c bf 8a 54 bb be
       -0.51868004 0.44691533 -0.61189777 -0.36587936
000200 5b 53 2c 3f 6d 7f 1d 3f f0 60 67 be 42 af 00 3e
       0.6731469 0.6152256 -0.22595572 0.12566856
000210 24 3f cd 3e 2a ab 1d 40 2e af 33 bf 0d 3c c9 3e
       0.40087235 2.463572 -0.7018918 0.39303628
000220 83 61 34 bf 19 bc 03 bf ba 59 96 be 94 01 e0 3e
       -0.7046129 -0.5145889 -0.2936533 0.43751204
000230 a0 21 ba 3f 17 d8 3c 3f a0 0f 94 3e 5d 0a 54 bf
       1.4541512 0.73767227 0.2891817 -0.82828313
000240 a2 21 3a bf af 20 05 3f 7b 00 93 3d a6 71 8e be
       -0.7270757 0.52002996 0.07177826 -0.27821082
000250 99 ec 35 3f 37 88 5a 3f e1 ca 5a 3e f3 35 67 3f
       0.71064144 0.853641 0.21366455 0.90316695
000260 a0 a2 46 3f 43 a8 f6 3d ab 68 0c bf 16 d5 02 be
       0.77591896 0.12043812 -0.5484721 -0.12776598
000270 2c bf 3b bf 17 9b 08 bf 8c e7 b3 be 4f f7 49 3e
       -0.7333858 -0.5336165 -0.35137594 0.19723247
000280 59 db 2c bf 81 a5 43 3e eb 24 0c be 16 71 49 be
       -0.675222 0.19106103 -0.13685958 -0.19672045
000290 fe 66 41 bf 9f 0d 32 bf 98 73 19 3e b7 9e 4c bf
       -0.7554778 -0.69552034 0.14985502 -0.7992968
0002a0 a4 7d a2 3d 37 1b 85 bf d3 3e 30 bf be 7f 0b 3f
       0.0793412 -1.039893 -0.6884586 0.54491794
0002b0 7c 9e 5a bf 57 7a 27 bf 72 77 40 bf 6c 8c f1 3e
       -0.8539808 -0.6542105 -0.7518226 0.47177446
0002c0 7b d8 16 bf e6 73 7f 3f 18 b1 0e 3e dd 71 1a bf
       -0.58924073 0.9978622 0.13934743 -0.6032999
0002d0 1a fc 1b bf 1e 83 3b 3f a2 7c 42 3f 40 35 78 3e
       -0.6093155 0.73246944 0.75971425 0.24239063
0002e0 ca 22 55 bf df 92 2e 3f 16 4c 3d 3f b6 67 1b 3f
       -0.8325621 0.6819286 0.7394422 0.60705125
0002f0 0f 4b af be 01 1e f3 be e3 4d 35 be eb 8d 29 bf
       -0.34236953 -0.4748383 -0.17705493 -0.66232175
000300 b3 9d 05 bf 8e ae b8 bf 36 8c 5a bf 9f 32 91 be
       -0.52193755 -1.442827 -0.85370195 -0.28358933
000310 54 92 40 bf db ba d5 3f 11 06 e3 bf 3c cd 0b bf
       -0.7522328 1.6697649 -1.7736226 -0.5461004
000320 53 f7 d5 3f 20 82 7c be 3b cc 1f bf 64 b5 65 3f
       1.6716102 -0.24659014 -0.62421006 0.89729905
000330 be ef cd 3f e3 79 8b bf 43 f0 60 bf 77 0b 70 3f
       1.6088789 -1.0896572 -0.8786661 0.93767494
000340 6a 56 81 bf 0c 9d ab bf 8b 24 a8 be 3c 6a 11 bf
       -1.0104496 -1.3407302 -0.3284038 -0.56802726
000350 d1 d2 12 c0 a8 5c 4c bf 07 b3 43 bf 18 93 7d be
       -2.2941172 -0.7982888 -0.7644505 -0.24763143
000360 ea a8 1b bf a5 3a 48 bf 70 f0 28 c0 c8 a7 0f bf
       -0.6080462 -0.78214484 -2.6396751 -0.5611539
000370 a9 2f 17 40 57 03 56 3e 93 58 06 bf 89 a4 14 bf
       2.362284 0.20899712 -0.52478904 -0.5806356
000380 cc 64 1d c0 1b 14 fd be 03 dd 08 c0 88 cb 6e bf
       -2.4592772 -0.49429402 -2.1384895 -0.93279314
000390 59 bd d5 3f 36 84 03 c0 0a 29 48 bf 30 a7 44 bf
       1.6698409 -2.0549445 -0.7818762 -0.7681761
0003a0 59 d4 42 bf ab 5c 20 c0 b5 b2 35 c0 a3 c1 b1 bf
       -0.76105267 -2.505656 -2.8390324 -1.3887218
0003b0 5e 74 9e be cb db 93 bf ff b9 ad bf 3d 7d 9a bf
       -0.30948156 -1.155145 -1.3572387 -1.206947
0003c0 9d 84 15 bf f7 32 4a bf 55 cc 0a bf a8 c3 40 bf
       -0.58405477 -0.78984016 -0.54218036 -0.7529855
0003d0 f8 d3 74 3f df fa 26 bf d7 55 62 bf 27 d4 9f 3f
       0.9563594 -0.6522655 -0.8841223 1.2486619
0003e0 fc 02 85 3f d5 db 03 c0 a5 07 29 bf da 1e 29 c0
       1.0391536 -2.0602925 -0.6602729 -2.642508
0003f0 f0 0f d9 be 9d fb 5d bf 0f 1d 38 be 17 a2 c1 3f
       -0.42394972 -0.86712056 -0.17979835 1.5127591

lstm.weight_ih_l0_reverse f4 [256, 6]
000000 b9 d6 2d 40 60 1a 88 40 5f 16 2d 40 50 00 30 40
       2.7162306 4.2532196 2.7044904 2.750019
000010 38 d3 3b 40 bf 2c 1c 3f 8a 17 de 3e 4c 25 c2 3e
       2.9347668 0.6100578 0.43377334 0.3791908
000020 ef a1 af 3e ff f4 25 3f c8 49 8d 3e 47 1f 90 3e
       0.34303233 0.6482696 0.27595353 0.28148863
000030 c6 7d 0d bf bd f2 18 bf 04 62 04 bf b8 bb ca be
       -0.5527004 -0.5974539 -0.5171206 -0.39596343
000040 ba 95 01 bf 27 22 12 bf d1 80 f2 3e 51 a5 ee 3e
       -0.5061909 -0.5708336 0.47363904 0.466105
000050 b9 bc ba 3e 66 e0 c2 3e d9 f0 9f 3e 91 30 2c be
       0.3647211 0.38061827 0.3123844 -0.16815402
000060 2a 7e e3 bf 77 49 df bf 46 a5 df bf 99 bd e0 bf
       -1.7772877 -1.7444295 -1.7472312 -1.7557861
000070 25 21 df bf be 92 c2 bf 5b 8a 28 bf 43 3e 0f bf
       -1.743199 -1.5201032 -0.65836114 -0.5595438
000080 8f 58 10 bf 45 e1 04 bf 16 1f f1 be d4 ae a2 be
       -0.5638513 -0.51906234 -0.4709403 -0.31774008
000090 f8 f2 81 3f cf 3c 99 3f 8c 57 a3 3f 99 b0 9e 3f
       1.0152273 1.1971682 1.2761092 1.2397643
0000a0 e1 61 a3 3f bd ea 4e 3f 5d 4a 98 bf 37 66 90 bf
       1.2764245 0.8082693 -1.1897694 -1.1281193
0000b0 a6 3d a2 bf fe e1 93 bf b0 44 8a bf a2 52 6f bf
       -1.2675064 -1.1553342 -1.0802212 -0.9348546
0000c0 d2 00 57 3f 66 64 52 3f 22 70 73 3f d1 26 68 3f
       0.83985627 0.82184446 0.95092976 0.9068423
0000d0 bb ba 4e 3f 11 52 b1 3f d9 c1 2e 3f 24 eb 5d 3f
       0.8075368 1.385317 0.6826454 0.8668692
0000e0 17 47 5f 3f f4 54 1f 3f db 81 20 3f ae e2 fb 3e
       0.8721785 0.62239003 0.62698144 0.4919638
0000f0 4f aa c7 be 1b a3 b7 be b3 51 01 bf c1 52 cb be
       -0.38997123 -0.35866627 -0.5051529 -0.39711574
000100 6e 5b fe be 83 b8 a1 be a5 09 07 bf 25 5d 60 bf
       -0.4967913 -0.31586084 -0.5274909 -0.8764213
000110 86 81 08 bf 4a 4e d0 be fd 25 7e be b3 ee a7 be
       -0.5332264 -0.4068473 -0.24819179 -0.327993
000120 fb a2 1a bf a0 a6 a3 be 51 a5 41 bf 85 14 10 bf
       -0.6040494 -0.31963062 -0.7564288 -0.5628131
000130 e8 fb 1b bf c9 33 3f be d9 34 c7 bf 74 55 d5 bf
       -0.60931253 -0.18672098 -1.5563003 -1.6666703
000140 73 7c dd bf 39 7b dc bf ed 45 d4 bf 87 45 bc bf
       -1.7303604 -1.7225105 -1.658384 -1.4708718
000150 d5 cd 01 3f 6c 73 0b 3f ce 25 0b 3f 80 66 0a 3f
       0.507047 0.54472995 0.5435456 0.5406265
000160 8f 17 2b 3f 7b aa 1e 3f cd 37 6e 3f 37 96 82 3f
       0.6683282 0.6197888 0.93053895 1.0202092
000170 31 40 7a 3f ad e9 63 3f da 78 80 3f bc aa 80 3f
       0.977542 0.89028436 1.0036881 1.0052104
000180 af ce 37 3e ce 44 5a 3e 49 28 dd 3d 0e 6d 40 bd
       0.17949937 0.2131531 0.107986994 -0.046979003
000190 06 8f a9 3c 4c ce 05 bf 19 10 83 3f b3 2c 77 3f
       0.020698082 -0.5226791 1.0239288 0.9655258
0001a0 17 6c 64 3f 7a 5b 76 3f 76 9a 77 3f c8 2f 2d 3f
       0.8922743 0.9623333 0.96720064 0.67651033
0001b0 f4 f5 64 c0 be 2e 80 c0 eb 71 5a c0 c7 32 46 c0
       -3.5775118 -4.005706 -3.413203 -3.0968492
0001c0 33 d8 59 c0 37 4b ca be cd 8c eb bf 1d 7b f7 bf
       -3.4038208 -0.3951051 -1.8402344 -1.9334446
0001d0 18 83 f1 bf f6 4e dc bf c3 5e e8 bf 9a 54 7f bf
       -1.8868132 -1.7211597 -1.8153919 -0.99738467
0001e0 9a 55 3e be f7 13 c1 be 32 ac a6 be 26 38 87 be
       -0.18587342 -0.37710544 -0.3255325 -0.26410025
0001f0 ad 9e 8f be 60 68 72 be 2d 9d 46 bc c5 cb 30 3e
       -0.28050748 -0.23672628 -0.012122435 0.17265232
000200 84 87 3e 3e 29 bc 88 3e 2a 47 95 3e 65 0d fd 3e
       0.18606383 0.26706055 0.29155856 0.49424282
000210 fa 09 2e bd 6c e4 d5 3e 45 9a 16 3f 1e fd e1 3d
       -0.042489983 0.41775835 0.58829147 0.110346064
000220 dd 9d ff 3e 21 40 3c 3f fc e6 1c bf 67 fb 63 3f
       0.49925128 0.7353535 -0.61289954 0.89055485
000230 bf c8 0d bf 2f 93 21 bf b6 43 45 bd c8 dc a0 c0
       -0.5538444 -0.6311521 -0.048160277 -5.026951
000240 26 dc 42 bc 1f e0 00 3f 69 4f c6 3e f4 db 3e bd
       -0.011893308 0.5034198 0.3873246 -0.046596482
000250 d8 5b 80 3e 99 47 04 40 78 54 d9 3e 1a 7e 03 3f
       0.2507007 2.06687 0.42447257 0.5136429
000260 14 fb 1f 3f c3 66 28 3f 0a 20 3c 3f 12 40 d6 3e
       0.6249249 0.657818 0.7348639 0.41845757
000270 c7 02 16 3e 16 35 3e 3e 72 bf c6 3e 5a 5f cb 3e
       0.14649497 0.18574938 0.38817936 0.39721185
000280 1c 5e b4 3e 11 69 f5 3e 48 bb a5 bf 7a 33 ae bf
       0.3522805 0.47931722 -1.2947779 -1.3609459
000290 71 46 a5 bf ae dd 98 bf 62 0b 9b bf a5 44 50 3c
       -1.2912122 -1.1942651 -1.2112849 0.012711679
0002a0 a5 b3 bf bd 95 03 ec bf bb 48 da bd de 4f 3f be
       -0.09360436 -1.8438593 -0.106584035 -0.1868281
0002b0 7b 9f dd be 10 09 91 bf 48 01 c6 be 68 59 3b 3e
       -0.43285736 -1.1330891 -0.38672853 0.18295825
0002c0 8a 78 14 be 73 45 e5 be 29 7a 22 be 48 ce 36 3f
       -0.14499107 -0.44779548 -0.15866913 0.7140851
0002d0 82 05 3f be 15 bc fd bd e2 15 b4 be 3c f6 dc 3b
       -0.18654445 -0.123893894 -0.35172945 0.0067432206
0002e0 8e 7f dd bd 71 7a 1e 3f c6 f1 08 3f 75 aa 19 3f
       -0.10815345 0.6190558 0.53493917 0.6002572
0002f0 a8 37 19 3f b0 ff ed 3e 34 9a e9 3e bb 17 16 3f
       0.5985055 0.46484137 0.4562546 0.5862996
000300 78 68 10 3d f6 11 51 be f3 fe 53 3e ea 70 bb 3e
       0.03525588 -0.20417008 0.20702724 0.36609584
000310 79 a6 4a 3e 7a c6 4b 3f 08 ff 81 40 f7 37 a3 40
       0.19790067 0.79599726 4.0623817 5.1005816
000320 5f e8 81 40 f1 17 81 40 3b 4d 8e 40 03 c6 5b 3f
       4.0596156 4.0341725 4.4469275 0.85849017
000330 e7 31 81 3d 55 86 2b bd 64 54 f4 bc ea ff 2d bd
       0.06308346 -0.041876156 -0.029825397 -0.042480387
000340 bb 02 8b 3d 7c e3 8e 3d 34 63 30 3f 63 df 1d 3f
       0.0678763 0.06976983 0.6890137 0.61668986
000350 89 fc 0f 3f db aa 1c 3f eb a9 21 3f 6c d6 eb 3e
       0.56244713 0.61198205 0.631499 0.46062028
000360 3d b9 93 3f 5d 4b 51 3f 9d 52 8f 3f 7e fd 71 3f
       1.1540905 0.8175562 1.1197087 0.94527423
000370 81 33 89 3f 54 59 29 3f 53 a6 14 3f 0e fe a6 be
       1.0718843 0.6615193 0.5806629 -0.32615703
000380 30 45 96 3f bd 5d 87 3f 3a c9 a4 3f 1e d1 99 3f
       1.1739864 1.0575482 1.287391 1.2016943
000390 9c 07 b5 be 8f 83 c2 be f2 6f 58 be 46 ff 49 be
       -0.35357368 -0.37990996 -0.21136454 -0.19726285
0003a0 9c 3c 57 be 84 e2 ba bd 2d af 44 3e 79 f4 89 be
       -0.21019214 -0.09125236 0.1920745 -0.2694433
0003b0 71 35 75 3e cc 44 a7 3d 13 7f 34 3e 4c b2 88 bf
       0.23946168 0.08167419 0.176266 -1.0679412
0003c0 97 78 48 3f 6c 36 67 3f fc 60 40 3f 69 f3 27 3f
       0.78309005 0.90317416 0.75147986 0.6560579
0003d0 e3 ac 4c 3f 34 56 42 3f c3 4b 74 3f af 31 36 3f
       0.79951304 0.75912786 0.95428103 0.7116956
0003e0 1e 46 47 3f 03 1b 39 3f f9 c0 4d 3f 36 c4 83 3f
       0.77841365 0.7230684 0.8037258 1.0294254
0003f0 f2 6d dd 3f d7 98 b2 3f 13 d5 bc 3f 64 5d ba 3f
       1.7299178 1.3952893 1.4752525 1.455975

lstm.weight_hh_l0_reverse f4 [256, 64]
000000 37 63 28 bf 18 f5 e0 bf 67 fe 4a 3e 75 ec 04 bf
       -0.6577639 -1.7574797 0.1982361 -0.51923305
000010 16 23 ec 3e 08 5a 4e bf 9a 86 40 be c3 89 6f be
       0.46120518 -0.80606127 -0.18801346 -0.23392396
000020 6e df e1 bf 8f bf c5 3e de 2f 5b bf fe 22 84 be
       -1.764631 0.3862271 -0.85619915 -0.25807947
000030 bb af 03 bd 06 3a f5 3e 25 b9 ed bf bd fd 76 3f
       -0.03215001 0.4789583 -1.8572127 0.96480924
000040 54 99 0f bf e4 7e 0c be 45 8d 89 be 74 a3 18 be
       -0.56093335 -0.1372028 -0.26865593 -0.14906102
000050 2a f6 4a 3f 0c d1 bb 3f ed b5 ad 3f 90 38 f6 be
       0.79281867 1.4673171 1.3571144 -0.4809003
000060 0d 09 08 bf 9d ee cd 3f 7b 46 2d bf 04 35 d4 bd
       -0.5313881 1.6088444 -0.6768567 -0.103616744
000070 8f 4a e3 be 77 d2 ac 3f 96 6b 08 bf 95 2e d2 3e
       -0.4439282 1.3501729 -0.53289163 0.41051164
000080 d0 a3 07 3f b2 76 a0 be 92 57 3e 3f 62 8e a8 3e
       0.52984333 -0.31340557 0.7435237 0.3292113
000090 c2 0a d8 3f 00 fa a1 3d 53 ca 40 bf c9 94 f6 bc
       1.6878283 0.07909012 -0.7530872 -0.030100243
0000a0 ba b0 6a 3f 04 22 31 3f d9 ef 92 3f 15 f6 34 c0
       0.91675913 0.6919253 1.1479446 -2.8275197
0000b0 c9 81 1f 3d bc 32 95 bf a9 bb e0 3f b7 0e cc bd
       0.038942132 -1.1656108 1.7557269 -0.09963744
0000c0 cc 96 bb be c7 b3 10 be d7 f7 c2 bf 05 87 95 3d
       -0.36638486 -0.1413108 -1.5231885 0.073011436
0000d0 20 38 02 bf ab 93 61 3e 92 19 8e be bc df 7f bf
       -0.5086689 0.22028987 -0.27753884 -0.99950767
0000e0 6e 8f 7b bf 42 14 46 3e c5 8c b7 3e c3 4f 1f bf
       -0.9826573 0.19343665 0.35849586 -0.6223108
0000f0 ca 43 94 3f c6 09 b1 3e 10 3c 32 3f 34 67 00 3f
       1.1583188 0.3457777 0.696229 0.50157475
000100 0e 9a 31 3f 96 c7 88 3f 41 41 30 3f f6 f5 bb bf
       0.69375694 1.0685909 0.6884957 -1.4684436
000110 b4 3c a9 be 7c 34 63 3e 52 8b c7 3f 37 f7 e2 bf
       -0.33054125 0.2218799 1.5589392 -1.7731694
000120 9c ad 30 3f 92 fd 99 3f f7 15 26 be 7f 4d 11 3f
       0.69014907 1.2030509 -0.16219316 0.56758875
000130 76 2c d5 be 6a fb 9d bf b9 66 20 3f 05 f9 5c bf
       -0.41635484 -1.234235 0.6265674 -0.86317474
000140 cc fb 88 bf eb 73 c7 3f b3 19 dc 3e 04 eb 44 bf
       -1.0701842 1.558225 0.42988357 -0.76921105
000150 1d cb 64 bf 57 86 8d bd 5d 3d 6d bf 40 4a 7f 3e
       -0.89372426 -0.06910389 -0.9267176 0.24930668
000160 82 19 99 be aa fa 87 bf 75 6c 4c bf df f3 3c bf
       -0.29902273 -1.0623372 -0.7985299 -0.7380962
000170 9f 81 fe 3e bc 8b c0 be fe 5f 6d 3f 7e 63 7b bf
       0.49708268 -0.3760661 0.927246 -0.9819869
000180 d6 5f 44 3f 1e 8b b8 be 75 ab 3a bf 49 15 65 3f
       0.76708734 -0.36043638 -0.7291787 0.89485604
000190 29 66 c7 be 81 bc 84 3f e2 dd 12 3f d4 f7 e2 bf
       -0.3894513 1.0370027 0.57369816 -1.7731881
0001a0 c2 f1 30 bf a6 4a 63 bf ab 3e 06 3f 4f 18 58 bf
       -0.69118893 -0.8878578 0.52439374 -0.8441209
0001b0 60 8e a3 3f c2 8c f5 3e 6f 90 f5 3e b9 e1 e4 3e
       1.2777824 0.47958952 0.47961757 0.44703463
0001c0 d3 af 8d 3f 42 30 3b 3f 95 bd d9 3e 1b f8 36 be
       1.1069282 0.7312051 0.42527452 -0.17868082
0001d0 c0 a7 8d 3f de 61 36 3f 4a 32 7d be 66 e7 8a 3e
       1.1066818 0.71243083 -0.24726215 0.27129668
0001e0 2e 48 90 3f a1 9d 51 3f 74 2d b3 be 0a 28 f1 bf
       1.1272027 0.8188115 -0.34995615 -1.8840344
0001f0 6a 64 73 bf c8 c8 46 3f 92 20 4d 3f ce af 61 3f
       -0.95075095 0.7765012 0.80127823 0.8815888
000200 83 3b c9 be f7 35 fe bd 8c 75 ba be ae 85 ba 3f
       -0.39303216 -0.12412637 -0.36417806 1.4572046
000210 58 f9 3b bf ac 4d e7 be 2b 5d 68 bf d2 78 c5 3e
       -0.73427343 -0.45176446 -0.90767163 0.3856874
000220 d0 5d 59 bf a8 45 a9 bf dd 9e b7 be 49 fc 4c be
       -0.8490877 -1.3224382 -0.3586339 -0.20018114
000230 74 a6 56 3f 9c e4 1b 3f b2 30 8f be 9c f5 ea 3d
       0.8384774 0.60895705 -0.2796684 0.114726275
000240 69 85 33 3f a1 ea 8c bf 79 e1 8a bf 23 ac 94 3f
       0.7012544 -1.1009103 -1.0850059 1.1615032
000250 f3 a0 27 3f ff 24 76 3e e4 ef eb 3e b5 3a 23 bf
       0.65479964 0.2403755 0.4608146 -0.63761455
000260 a7 e2 5d 3f 27 42 63 be e4 46 8e be 90 30 a6 3f
       0.8667397 -0.22193204 -0.2778846 1.298357
000270 fd e4 66 bf 50 9d a6 be 31 07 fe be 8c 5f 5e 3f
       -0.9019316 -0.32541895 -0.49614862 0.8686454
000280 28 6d 20 3e 05 9e 8d 3e e1 63 e6 3e d1 7e 88 bf
       0.1566664 0.27659622 0.44998077 -1.0663701
000290 bc c0 fc 3e ea 1e 9e bf 4f 96 fb be 1d 29 c5 3e
       0.49365795 -1.2353184 -0.49138114 0.3850793
0002a0 78 c0 27 be 30 19 08 3f 92 66 b2 bd 7a 53 6a 3e
       -0.16382015 0.53163433 -0.0871097 0.22883406
0002b0 f5 63 b5 bf 63 f1 41 bf c3 b6 9d be ca 08 1e bf
       -1.417113 -0.7575895 -0.308035 -0.6173216
0002c0 28 00 24 bf f6 1d 72 bf c9 f5 45 bf b5 ee 25 3e
       -0.6406274 -0.94576967 -0.77328163 0.16204341
0002d0 e3 38 6c 3e d8 45 cb 3e 88 27 53 be 4f 87 eb be
       0.23068576 0.39701724 -0.20620549 -0.4600167
0002e0 d7 47 02 bf 9f fe ca be d6 ee 8e 3f 78 a3 3a 3f
       -0.5089087 -0.39647385 1.1166637 0.72905684
0002f0 7b f3 ab 3e 59 ff 2a bf db d2 51 bd 6b 38 7d bf
       0.33584198 -0.6679588 -0.051226478 -0.9891421
000300 aa 2b 8b bd d3 5f 7e be d1 e5 9d bf c0 6b bc 3f
       -0.06795438 -0.24841242 -1.2335759 1.4720383
000310 60 a2 84 be 83 e5 30 3f f0 27 ad bf 24 e8 e4 3e
       -0.25905132 0.6910021 -1.3527813 0.4470836
000320 3b 9b 84 be b1 e8 ea bf 76 27 75 bb 60 cb 2d 3f
       -0.2589968 -1.8352262 -0.0037407554 0.6788845
000330 3d d2 ae 3f c4 ea 2f bf c5 35 30 be 82 d3 c8 3e
       1.365791 -0.687176 -0.17208011 0.39223868
000340 87 2e a1 3f 89 c5 c9 bf 0c df ac bf 17 72 9b 3f
       1.2592324 -1.5763408 -1.3505569 1.2144192
000350 83 a3 77 3f 4b 18 39 3e 90 29 81 3e 18 9c ca be
       0.96733874 0.18075673 0.25227022 -0.39572215
000360 77 98 52 3f f0 c4 79 be eb 90 93 bd db 14 8a 3f
       0.8226389 -0.24391532 -0.07205375 1.0787615
000370 d7 03 8a bf 7f f3 bf be dd 23 70 bf 72 d6 b3 3f
       -1.0782422 -0.3749046 -0.93804723 1.4049819
000380 b4 a2 0b bf 51 72 f4 3e ad e4 32 be f7 c1 ea bf
       -0.5454514 0.47743466 -0.17470045 -1.8340443
000390 01 a6 24 3d c7 98 96 bf ca b1 cc bd 63 4e c5 3e
       0.040197376 -1.1765374 -0.09994848 0.38536367
0003a0 d5 36 af 3e ae ac 0d 3f 81 78 48 bf 6d 93 83 3f
       0.3422152 0.55341613 -0.78308874 1.0279366
0003b0 06 a6 a5 bf 09 94 b4 be 7f 12 9b bf 64 e7 ac bf
       -1.2941291 -0.35269192 -1.211502 -1.3508115
0003c0 16 03 db be ef 87 55 bf b7 e8 3b 3e 5e 19 05 3f
       -0.42775792 -0.83410543 0.18350492 0.5199183
0003d0 84 b6 11 3e 78 d9 ce be 3d 42 23 3f 69 9e 43 3d
       0.1422978 -0.4040029 0.63772947 0.047758494
0003e0 40 62 d8 be d2 03 8d bf 26 c8 d9 3e a0 ba 08 3f
       -0.4226246 -1.1016791 0.42535514 0.5340977
0003f0 83 fc ce 3f ff 82 9a bf 2e 6b 56 bf 11 2d a2 bf
       1.617081 -1.2071227 -0.83757293 -1.2670003

lstm.bias_ih_l0_reverse f4 [256]
000000 7e cd 1f 3f 5c 2f e2 3d 14 62 1e bf 22 65 af 3d
       0.6242293 0.11044189 -0.61868405 0.085642114
000010 ef 48 9b bf d8 e9 db be c3 e9 6e 3f b8 ae 24 bf
       -1.2131633 -0.42951846 0.9332544 -0.643291
000020 bf c0 88 3f ca b7 25 3f eb 95 25 be 7b 7f 61 bf
       1.0683821 0.64733565 -0.1617047 -0.88085145
000030 7d 14 a8 bd d4 30 a7 bf 7b ea 38 3f 8b 74 83 3f
       -0.08207033 -1.3061776 0.7223279 1.0269941
000040 20 d7 bc bc 5c 01 3c 3f 24 e5 c3 bf 90 25 95 bf
       -0.023051798 0.73439574 -1.5304303 -1.1652088
000050 93 a2 85 be b1 2a f6 3e 4b 4e 69 be 1d b1 9c 3f
       -0.26100597 0.48079446 -0.22783773 1.2241551
000060 47 86 4b bd 61 ca 63 3f be e3 83 3e 9e 66 8e bf
       -0.049688604 0.8898068 0.2575969 -1.1125066
000070 20 34 b2 be df 5a ac bc e1 d8 42 3e 1a 93 1c 3f
       -0.34805393 -0.021039424 0.19028045 0.6116196
000080 92 83 6d 3f 48 70 e5 3f 89 92 b0 bd 8c 51 50 3e
       0.92778885 1.792489 -0.08621699 0.20343608
000090 36 c7 ae 3f 79 6e 3d bf 77 c3 2a be d5 20 18 3e
       1.3654544 -0.7399669 -0.16676126 0.14856274
0000a0 d2 99 2f 3f 94 aa 90 3f 45 bb 70 3f 14 91 63 bf
       0.68594086 1.1302056 0.9403575 -0.88893247
0000b0 38 92 37 bf 7b 53 aa 3e 2e 67 fa 3d fc f5 55 bf
       -0.7170749 0.33266816 0.12226711 -0.8357847
0000c0 cd c5 a3 bf 4d 6c fa be 60 bd d0 3d c1 40 21 3f
       -1.2794739 -0.48910752 0.101923704 0.6298943
0000d0 00 7b 4a 3e d8 ab 97 3f fa e7 7a 3f a9 cb a0 3d
       0.19773483 1.1849318 0.9801022 0.07851345
0000e0 2c 5c 87 be 17 1c 46 bf 50 99 ad bd a8 25 3f bf
       -0.2643751 -0.7738661 -0.08476508 -0.74666834
0000f0 c9 8e cc 3f ea a0 92 bf 6c 46 03 bf 42 74 a4 bf
       1.5981075 -1.1455357 -0.5127933 -1.2847979
000100 94 39 91 3e 2c b4 a0 bf 50 13 7e bf dd cb 1c bf
       0.2836424 -1.2554984 -0.9924822 -0.6124857
000110 cb 00 bd bf 0f e1 60 3e 8d c7 2b bf 12 00 d1 bf
       -1.4765867 0.21960853 -0.67101365 -1.6328146
000120 3c c6 8d bf a0 1a f2 be ce 37 03 bf cd 5c fe be
       -1.1076121 -0.47285938 -0.51257026 -0.49680176
000130 58 eb 32 bf e1 b6 95 3e 46 a9 64 bc d2 da 74 bf
       -0.69890356 0.29241088 -0.013956374 -0.95646393
000140 09 85 6b bf 79 ea 25 bf 9e 32 0b bf 5c df 2e bf
       -0.9199987 -0.648109 -0.5437411 -0.6830957
000150 94 ea 29 3f 95 76 13 3e 1a 45 78 bf ee db 89 be
       0.6637356 0.14400704 -0.9698044 -0.26925606
000160 91 0a 37 bf 63 c4 8f bf ec a4 34 bf 74 9b 06 bf
       -0.715005 -1.1231807 -0.7056415 -0.5258095
000170 47 03 b9 bf 96 fe 53 bf 08 5c 0f be 2b ba 33 bf
       -1.4454125 -0.8281034 -0.13999951 -0.70205945
000180 8f aa 4d bf 71 67 6d be 2f 83 1b 3f 6b 4a 82 bf
       -0.80338377 -0.23183991 0.60747045 -1.017896
000190 c1 2c ce be 2a 40 28 bf 71 a1 a6 3e f1 3f 3a bf
       -0.4026852 -0.65722907 0.32545045 -0.72753817
0001a0 c1 42 fa 3d e7 2e 4b bf 98 aa f9 be c7 cb 3f bf
       0.122197635 -0.7936844 -0.48762965 -0.74920315
0001b0 86 2b 3f bf 42 ac 09 bf 74 af 89 bf 4f bc 7e bf
       -0.74675786 -0.5377847 -1.0756669 -0.99506086
0001c0 ec 37 4d bf 01 77 02 bf b3 8b a3 3e 34 d7 50 3f
       -0.80163455 -0.50962836 0.3194252 0.81578374
0001d0 c8 3f c5 bf 3f cb a4 bf 32 40 7b 3f 15 fe f0 3d
       -1.541009 -1.2874526 0.9814483 0.11767212
0001e0 ce 17 80 bf 94 18 a7 bf 3c fc 05 bf 62 0d 82 bf
       -1.0007265 -1.3054376 -0.52338004 -1.0160334
0001f0 20 b5 a8 bf 9b f3 88 be 89 31 25 bf 03 56 ca bf
       -1.3180275 -0.26748356 -0.6452871 -1.5807499
000200 53 bb bf 3c b2 42 55 3d e6 c1 e2 3b 59 74 2c bf
       0.023404753 0.05206556 0.006920087 -0.6736503
000210 2b 0c a1 3e e1 c3 76 bf 1c ff 5e 3e 70 f1 8f bd
       0.31454596 -0.9639264 0.21777004 -0.070284724
000220 02 a8 39 be 68 6a 35 3f c9 18 b1 3d 65 e2 94 be
       -0.18130496 0.7086549 0.086473055 -0.29078975
000230 77 3b 2f bf 65 bc cf 3e be f4 3a bf 84 23 a0 3e
       -0.6845011 0.4057342 -0.73029697 0.31277096
000240 23 e8 86 3e 0a 67 ec 3e 97 c6 ac be c9 79 a6 be
       0.2634898 0.46172363 -0.33745262 -0.3251479
000250 e5 7d 34 3f f4 1f 25 3f ca 7e 10 3f 27 01 6a 3f
       0.705046 0.6450188 0.56443465 0.9140801
000260 9d e1 53 3f 6a cd e1 bd 89 63 88 3f ea fe 2e 3d
       0.82766134 -0.11025508 1.0655376 0.042723574
000270 13 5e 32 bf d2 94 15 3f b8 e6 0a 3c 22 79 a6 3c
       -0.69674796 0.58430207 0.008477859 0.020321433
000280 9f e2 38 bf 4f d5 0c 3f e3 32 63 3f 90 25 2c 3f
       -0.72220796 0.55012983 0.8874952 0.67244816
000290 b1 44 85 3e 6a 6d 18 bf f3 4a 4e bf 75 d0 8b bd
       0.2602897 -0.5954195 -0.80583113 -0.068268694
0002a0 91 8c 3a be 71 59 5b bd 91 7e 44 bf f4 64 11 be
       -0.18217684 -0.053552095 -0.76755625 -0.14198667
0002b0 97 34 ff 3e 37 1d a7 be de 07 00 bd 11 a3 a5 bd
       0.4984481 -0.32639477 -0.031257503 -0.08087743
0002c0 f4 b2 92 be 99 21 e6 3d 1c 0c 77 3e da af c0 bf
       -0.28652155 0.11236877 0.24125713 -1.5053666
0002d0 0b 5d f0 be 7f f5 3d bf 0d e0 66 bf d5 2c 2f be
       -0.46945986 -0.7420272 -0.90185624 -0.17106946
0002e0 2c 66 02 bf 2a c0 fb 3e c7 a5 c0 be b5 0e 1f bf
       -0.5093715 0.49170047 -0.37626478 -0.62131816
0002f0 84 ef 42 bf fb 50 9d be 88 1a 4d 3f 2d 28 a6 3e
       -0.7614672 -0.30725846 0.8011861 0.32452527
000300 e3 4e ee 3e 64 02 a5 3f e9 33 87 bf a2 ec bd be
       0.4654456 1.2891355 -1.0562717 -0.370946
000310 4f a0 60 bf f0 f3 0f bf 5e d4 33 3f f3 92 39 bf
       -0.8774461 -0.56231594 0.7024592 -0.7248985
000320 1c 06 43 3f 0c 53 a2 3e 36 52 96 be 6a 9b 9a be
       0.761812 0.31703985 -0.29359597 -0.30196697
000330 72 cb 2f 3f a8 a0 69 bf 3f cf 81 3e 6b 36 87 3f
       0.6866981 -0.91260767 0.2535343 1.0563482
000340 a4 5e 95 bf 2e b9 42 3f 91 99 3e bc 46 6e 94 3d
       -1.1669507 0.7606381 -0.011633293 0.072475955
000350 ff 36 05 be 2d 52 a5 3c 7f 5c e3 3e 9d cf 4a 3f
       -0.1300926 0.020180786 0.44406506 0.7922304
000360 f9 4c 91 be f0 94 8b 3f db ee d0 3e a8 be 88 bf
       -0.28379038 1.0904827 0.40807232 -1.0683184
000370 a1 9f 7a bf 3f bd ce 3f 47 2a 0f bf 7f 63 2c 3f
       -0.97899824 1.6151503 -0.55923885 0.6733932
000380 46 e7 83 3f 36 46 85 bd dc 6d 85 bf f9 81 7f 3e
       1.0304954 -0.06507532 -1.0424151 0.24951924
000390 78 ef a3 3f a4 be 79 bf 56 27 b9 be 37 d1 b6 3e
       1.2807455 -0.9755652 -0.36162823 0.35706493
0003a0 ab 60 f2 be 5e 7c 62 3f cd eb 1b 3f 51 27 40 bf
       -0.47339377 0.8847102 0.6090668 -0.7505999
0003b0 ba 9d f8 bd 6d 90 aa 3f 43 74 9a 3f 67 d9 05 bf
       -0.12139459 1.3325325 1.206673 -0.52284855
0003c0 a3 8c 7b bf fa af 00 be 99 e5 01 3e 8e fb 9b 3e
       -0.9826147 -0.1256713 0.12685241 0.30465358
0003d0 06 ff d0 be 7e 15 c6 3e 30 ab 38 3f fe 08 4d 3f
       -0.40819567 0.38688272 0.7213621 0.80091846
0003e0 77 46 23 3f ed a5 3a bf da a5 9b be db 53 d2 bb
       0.63779396 -0.7290943 -0.30399972 -0.0064186878
0003f0 64 58 06 3f 51 5a de be 49 20 5f 3f 0a 94 74 bf
       0.52478623 -0.4342828 0.8715864 -0.9553839
