data_generators/c-rnn-gan.pytorch/models/c_rnn_gan_g.pth (torch, 275291 bytes, 12 tensors)

fc_layer1.weight f4 [64, 12]
0	0x3c454bdd	0.012042013
1	0x3e872676	0.2639653
2	0xbc3438f0	-0.010999903
3	0x3d8c38cb	0.0684677
4	0x3e0eec3a	0.13957301
5	0xbd982e4c	-0.074307054
6	0xbe9c1747	-0.3048651
7	0x3d8c32eb	0.06845649
8	0xbdf39322	-0.11893298
9	0xbe4130aa	-0.1886622
10	0xbd812ac1	-0.06306983
11	0xbdcce503	-0.10004618
12	0x3eb0e35e	0.34548467
13	0x3e40b58c	0.18819255
14	0xbe2d9bb8	-0.16953933
15	0x3d733cc6	0.05938413
16	0x3e7cd438	0.2469033
17	0x3cb4ce59	0.02207105
18	0x3e781173	0.24225406
19	0xbe05411f	-0.13013123
20	0x3d0ed527	0.034871247
21	0x3ea42787	0.32061407
22	0x3e9769a8	0.29572797
23	0x3e8ea72a	0.2786191
24	0x3e812367	0.25222322
25	0x3e83e7c9	0.25762776
26	0x3eb2539b	0.3482941
27	0xbc36db54	-0.01116069
28	0x3e62d36e	0.22150967
29	0xbb700b15	-0.00366277
30	0x3e62ab54	0.22135669
31	0x3e43bd99	0.19115295
32	0x3e9a1dac	0.30100763
33	0x3c70444e	0.014664723
34	0xbe39934a	-0.18122593
35	0x3ebbeb68	0.36703038
36	0x3d9e0ce1	0.077173
37	0xbd82334c	-0.0635744
38	0xbe888379	-0.26662806
39	0x3e320b18	0.17387044
40	0xbd85cce2	-0.06533219
41	0x3e79ad3e	0.24382493
42	0x3e5ae54d	0.21376534
43	0xbdfc345b	-0.123146735
44	0xbdfa802f	-0.1223148
45	0xbd92e092	-0.0717174
46	0x3e9f7467	0.31143495
47	0x3e2436f8	0.16036594
48	0xb9e986c4	-0.0004454163
49	0x3ceb66b3	0.028735494
50	0x3e9dd0d6	0.30823392
51	0xbc7184b3	-0.014741111
52	0x3e54a696	0.20766672
53	0xbd89cc07	-0.06728368
54	0xbe82f837	-0.25579998
55	0xbf0b792f	-0.54481786
56	0xbec155c0	-0.37760735
57	0xbd617f4f	-0.05505305
58	0xbe8cf388	-0.2752955
59	0xbdf5a0a0	-0.119935274
60	0xbe5673a8	-0.20942557
61	0xbe3f0f33	-0.18658142
62	0xbe22c5dc	-0.1589579
63	0x3e9a6fe5	0.30163494
64	0xbe7fa2d3	-0.24964456
65	0x3e16dd97	0.14732967
66	0x3e741bc0	0.23838711
67	0xbe4d4c64	-0.20048672
68	0xbd6d5898	-0.057945818
69	0x3e70e76b	0.23525779
70	0xbe50a821	-0.20376636
71	0x3d051788	0.032493144
72	0xbde04b26	-0.109518334
73	0xbc9acc25	-0.018896172
74	0x3e1d91f8	0.15387714
75	0xbd917951	-0.071032174
76	0x3c499e29	0.012305775
77	0xbc6e603b	-0.01454931
78	0xbd045f2e	-0.032317333
79	0xbede0fda	-0.4337147
80	0x3e3dbb13	0.18528394
81	0x3ed45adf	0.4147558
82	0x3ea0b6e7	0.31389543
83	0xbeacab89	-0.3372462
84	0xbc0bdee1	-0.008537025
85	0x3e520932	0.2051132
86	0xbe849010	-0.2589116
87	0x3e6a4d02	0.22880939
88	0xbe5e7625	-0.21724756
89	0x3d04f758	0.032462448
90	0xbe889749	-0.2667792
91	0x3e008a68	0.12552798
92	0x3bbc477d	0.0057458268
93	0x3d115575	0.03548189
94	0xbe08c098	-0.13354719
95	0xbd992221	-0.07477213
96	0xbda00018	-0.07812518
97	0xbd9317cf	-0.071822755
98	0x3e646244	0.2230311
99	0x3e6372fa	0.22211829
100	0x3e721379	0.2364024
101	0xbe576736	-0.21035466
102	0x3c05986b	0.008154015
103	0x3e582a8b	0.21109979
104	0x3e1ccdd0	0.15312886
105	0xbe35bbbf	-0.177474
106	0xbe36466f	-0.17800306
107	0xbcd678e4	-0.026180692
108	0x3cfdb8d7	0.030971928
109	0xbe2014e0	-0.15632963
110	0x3de82101	0.1133442
111	0x3e525279	0.20539273
112	0xbdaffff2	-0.085937396
113	0x3d823890	0.06358445
114	0xbe90a5f9	-0.28251627
115	0x3e368a9f	0.17826317
116	0xbe1a38b9	-0.150607
117	0xbec3a355	-0.3821055
118	0xbe270bed	-0.16313143
119	0x3d876569	0.06611139
120	0x3e4c4ada	0.19950429
121	0x3d3d3d1c	0.046200857
122	0x3de58c0f	0.11208355
123	0x3e82049e	0.25394148
124	0x3d7afc73	0.06127591
125	0x3e709e8b	0.2349798
126	0x3e51b8a0	0.20480585
127	0xbe05d6b6	-0.13070187
128	0x3dd98592	0.1062118
129	0xbd9a0c62	-0.07521893
130	0x3e0bcbf7	0.13652025
131	0xbe2fdbe5	-0.17173727
132	0x3d277ba6	0.040889405
133	0x3e0921f4	0.13391858
134	0x3e82badc	0.25533187
135	0x3e00f9be	0.12595269
136	0x3d745f0d	0.05966096
137	0x3d7e17d8	0.062034458
138	0xbe1bdf9b	-0.15222017
139	0x3eb7ee9f	0.3592424
140	0x3d13af27	0.03605571
141	0x3d3a7877	0.04552504
142	0x3ce6b00f	0.028160123
143	0x3e33c6cd	0.17556305
144	0xbdda1425	-0.106483735
145	0x3dd925ff	0.1060295
146	0x3e8a6da6	0.2703678
147	0x3e731ef4	0.23742276
148	0xbd15263d	-0.03641342
149	0xbe03f345	-0.12885769
150	0x3d3b5f21	0.04574502
151	0x3eb7efef	0.35925242
152	0x3ea6df53	0.32592258
153	0xbdc9ba1c	-0.09849951
154	0x3cd0817b	0.025452366
155	0x3ea19fed	0.31567326
156	0xbded8a13	-0.11598601
157	0x3e8fc5ba	0.2808054
158	0xbd90a711	-0.070631154
159	0x3daa4c17	0.08315294
160	0x3d9fd817	0.07804888
161	0x3c477c1e	0.012175588
162	0x3e046a5d	0.129312
163	0xbd1d2d56	-0.038373314
164	0x3ec7bbc7	0.3901045
165	0x3eac7c8a	0.33688766
166	0x3dd40083	0.1035166
167	0x3e94f9ec	0.29096925
168	0x3d82b369	0.06381876
169	0x3e1ba310	0.15198922
170	0x3e5552ea	0.2083241
171	0x3da8eb01	0.082479484
172	0x3ea3a358	0.3196056
173	0x3e550751	0.20803572
174	0xbd25afc6	-0.040450834
175	0xbe18cb07	-0.14921199
176	0x3e8a193c	0.26972377
177	0xbe497b02	-0.1967583
178	0xbe5ba231	-0.2144859
179	0x3eaa92d6	0.33315152
180	0x3e56c5e4	0.20973927
181	0xbe3a4bdd	-0.18193002
182	0x3e773fef	0.24145482
183	0xbe24014f	-0.16016124
184	0x3d4ed747	0.050498273
185	0xbd73be58	-0.059507698
186	0x3e91e570	0.2849536
187	0x3ea25cb9	0.31711367
188	0xbe1d2da8	-0.15349448
189	0xbbf0a08a	-0.0073433565
190	0xbde1ff8e	-0.11035071
191	0x3e8ffcb3	0.28122482
192	0x3e3bc210	0.18335748
193	0xbe682b26	-0.2267271
194	0xbe10138f	-0.14069961
195	0x3e30cbdd	0.17265268
196	0x3e75afac	0.23992795
197	0xbc8cbb30	-0.017179102
198	0xbd9d52fe	-0.07681845
199	0x3bb45285	0.005503001
200	0x3de21c71	0.11040581
201	0x3e6a3f05	0.22875603
202	0x3ebdbd14	0.37058318
203	0x3dcb6564	0.09931448
204	0xbe1b8bcf	-0.15190051
205	0x3e52d205	0.20587929
206	0xbe4483e4	-0.19190937
207	0x3e5a0f65	0.21294935
208	0x3e04456b	0.12917106
209	0x3e91e5e5	0.28495708
210	0x3eb462c4	0.35231602
211	0x3a89234b	0.0010462789
212	0x3d08e3be	0.033420317
213	0xbe8a3b9f	-0.26998612
214	0x3e23e0c0	0.16003704
215	0x3eb78c17	0.35849068
216	0xbdfa0c6a	-0.12209399
217	0xbc9153db	-0.01774018
218	0x3e28d4ce	0.16487429
219	0xbd6ba14e	-0.05752688
220	0x3e9d0856	0.30670422
221	0x3e079f24	0.13244301
222	0x3ed0fd7d	0.40818396
223	0x3e01c851	0.12674071
224	0x3e4f2d3a	0.20232096
225	0x3d3789cf	0.04480916
226	0x3e034111	0.1281779
227	0x3e56d5e2	0.20980027
228	0x3d819b88	0.06328493
229	0xbdb6134e	-0.08890401
230	0xbd8dd888	-0.06926066
231	0xbe1c366f	-0.1525514
232	0xbe8c2754	-0.27373755
233	0xbe91901e	-0.28430265
234	0x3da98666	0.082775876
235	0xbd8faab9	-0.07014985
236	0xbdee5ea1	-0.11639143
237	0x3ddb085a	0.10694952
238	0x3dcdb37b	0.10043999
239	0x3cafc6f5	0.021457175
240	0xbdff6b67	-0.12471657
241	0xbe1e6b19	-0.15470542
242	0xbec313e6	-0.3810112
243	0xbe707043	-0.23480324
244	0xbe4ff211	-0.20307185
245	0x3acd6e64	0.0015673158
246	0x3e2179bb	0.15769093
247	0x3e0cd071	0.13751389
248	0xbded6955	-0.11592356
249	0x3e31d10b	0.173649
250	0x3e6d568c	0.23177546
251	0xbe31c20d	-0.17359181
252	0xbe687d97	-0.22704159
253	0x3eaee705	0.3416063
254	0x3e8e7b58	0.2782848
255	0xbd89b401	-0.06723786

fc_layer1.bias f4 [64]
0	0xbd8cbcae	-0.06871925
1	0x3e630667	0.22170411
2	0xbb37acb5	-0.0028026525
3	0xbe48aaa8	-0.1959635
4	0xbe5bf112	-0.2147868
5	0x3d4be5ff	0.04977989
6	0xbc0c7e8f	-0.008575096
7	0xbe2b0ce8	-0.16704142
8	0xbe64751a	-0.22310296
9	0xbe2f406f	-0.17114423
10	0xbe0b96b7	-0.13631712
11	0x3eac2c99	0.33627775
12	0xbdd0c4e5	-0.10193805
13	0x3e996f1d	0.29967585
14	0x3ea77bfa	0.32711774
15	0x3d0f793b	0.035027724
16	0x3ea85729	0.32878998
17	0x3e9dd42d	0.3082594
18	0x3db468ed	0.088090755
19	0xbe8ad606	-0.27116412
20	0x3d448a17	0.047983255
21	0x3eb91429	0.36148193
22	0xbd24fa63	-0.04027785
23	0x3cf0e417	0.029405637
24	0x3dabd1b5	0.08389608
25	0x3d52299b	0.05130921
26	0x3e08079f	0.13284157
27	0xbdccc909	-0.09999282
28	0x3dbae868	0.09126359
29	0x3ebcfbbe	0.36910814
30	0x3dfa950a	0.12235458
31	0xbe84a299	-0.25905302
32	0x3e963abf	0.29341695
33	0x3ea6b0b0	0.32556677
34	0xbd3c7174	-0.046006635
35	0xbe0807b2	-0.13284186
36	0x3eee3613	0.4652563
37	0xbd9f9fbe	-0.0779414
38	0x3da5ce6f	0.08096015
39	0x3dae7bcb	0.085197054
40	0x3ef324d9	0.4748905
41	0x3c2bbae9	0.010481575
42	0xbe125561	-0.14290382
43	0x3de1b87a	0.11021514
44	0x3d8ca8ac	0.06868109
45	0xbdc5f5ba	-0.09666009
46	0x3e4a12c5	0.19733723
47	0xbc7a5e04	-0.015281204
48	0xbdcb4e05	-0.099269904
49	0xbdd137c0	-0.102157116
50	0xbdb1316e	-0.08652006
51	0xbe807c98	-0.25095057
52	0x3e1569b9	0.14591111
53	0xbdb915ca	-0.09037359
54	0x3e7bb066	0.2457901
55	0x3e5f4469	0.2180344
56	0xbe4d25d5	-0.20033963
57	0x3e25f2af	0.16205858
58	0x3e956a66	0.29182738
59	0x3e08934b	0.13337438
60	0x3dfc01bd	0.12305019
61	0x3e37914e	0.17926523
62	0xbd1db49e	-0.038502328
63	0x3ec89edf	0.3918371

lstm_cell1.weight_ih f4 [256, 64]
0	0xbdff1bb4	-0.12456456
1	0x3ce8d544	0.028422005
2	0xbc80d374	-0.015725829
3	0x3d2687d7	0.04065689
4	0x3e133faa	0.14379755
5	0x3ceae281	0.028672459
6	0x3cf78a0c	0.030217193
7	0x3d00c706	0.031439804
8	0xbdec7789	-0.11546237
9	0x3c4a4104	0.0123446025
10	0x3a96c7a5	0.001150359
11	0x3dc20572	0.09473695
12	0x3cd715f6	0.026255589
13	0xbc9f5477	-0.019449456
14	0x3e1cd5b9	0.15315904
15	0x3c8ccea2	0.017188374
16	0x3e07e8d6	0.13272414
17	0x3c35949d	0.011082795
18	0x3e33a602	0.17543796
19	0xbdf78d74	-0.12087527
20	0xbdb80b40	-0.08986521
21	0x3d3bd758	0.045859665
22	0x3dffb8ee	0.124864444
23	0xbd0f470d	-0.03497987
24	0xbbe97df1	-0.007125609
25	0x3ddd193a	0.10795827
26	0x3e5a6b5d	0.21330018
27	0x3e085c9f	0.13316582
28	0x3dbf7eac	0.093503326
29	0x3de83cc7	0.11339717
30	0xbdc94e61	-0.09829403
31	0x3da22fe3	0.0791929
32	0x3de41d26	0.11138372
33	0x3e55a5a2	0.20863965
34	0x3e2407e0	0.16018629
35	0x3e08605e	0.13318011
36	0x3e441ecf	0.19152378
37	0xbc3d5bd6	-0.01155754
38	0xbbeac72e	-0.0071648574
39	0xbd90ce5c	-0.0707061
40	0x3db9b8f6	0.090684816
41	0x3e1f63c8	0.15565407
42	0xbbb7508c	-0.0055943187
43	0xbd6cdaa0	-0.057825685
44	0x3ce24679	0.027621495
45	0x3e00535a	0.12531796
46	0x3c0e30ae	0.008678598
47	0xbd24a7d1	-0.040199105
48	0xbd5a7330	-0.053332508
49	0x3dc870bd	0.09787128
50	0xbd35e0d1	-0.044403855
51	0x3d44c482	0.048038967
52	0x3e08062e	0.13283607
53	0x3ded7384	0.115942985
54	0x3e61ebe1	0.22062637
55	0x3d153c96	0.036434732
56	0x3c1ba959	0.009500825
57	0x3def716b	0.11691555
58	0xbc5f5e79	-0.013633364
59	0xbcc25edf	-0.023726879
60	0x3c2986ab	0.010347049
61	0x3e7caee6	0.24676093
62	0xbd0ebef4	-0.034850076
63	0x3d81c6e8	0.063367665
64	0x3ce25e8a	0.02763297
65	0x3d0d72e2	0.03453339
66	0x3e1dee02	0.15422824
67	0x3d6c1e3b	0.057646018
68	0x3e0a7cde	0.13524196
69	0x3cabf4e7	0.020990802
70	0x3e41c37c	0.18922228
71	0xbe094e45	-0.13408764
72	0xbd3d091e	-0.046151273
73	0xbd2a79e0	-0.041620135
74	0xbd2e2be4	-0.042522326
75	0xbdcb9ce2	-0.099420324
76	0x3e144b39	0.1448182
77	0x3e56a27b	0.20960419
78	0x3e81581d	0.25262538
79	0x3e3c4e21	0.18389179
80	0x3df4ead5	0.11958853
81	0x3e2a94f8	0.1665839
82	0x3e000c42	0.12504676
83	0xbd2b0712	-0.04175479
84	0xbc76edbb	-0.015071328
85	0xbb718995	-0.0036855687
86	0x3c3b5f78	0.011436336
87	0xbcc4e92d	-0.024036968
88	0x3dc9ec73	0.09859552
89	0x3d520685	0.05127575
90	0x3e05efdc	0.1307978
91	0x3d94a92f	0.07258832
92	0x3e2494ac	0.16072339
93	0x3d935608	0.071941435
94	0x3e7faef3	0.24969082
95	0xbdfe1658	-0.124066055
96	0x3dc30221	0.095218904
97	0x3d024aae	0.0318095
98	0x3e0f95c4	0.14021975
99	0xbc558885	-0.013033037
100	0xbb71bdc3	-0.0036886788
101	0x3a85ff75	0.0010223227
102	0x3e065969	0.13120045
103	0x3e8d8580	0.27640915
104	0xbd7be410	-0.061496794
105	0x3d8b7e4a	0.06811197
106	0x3c5f5cd8	0.0136329755
107	0xbdf75454	-0.12076631
108	0x3da5a740	0.08088541
109	0xbd32d2b4	-0.043657973
110	0x3cefcdcb	0.029272934
111	0xbd4fd7c1	-0.05074287
112	0x3e53a22f	0.20667337
113	0x3c8b6ade	0.017018732
114	0xbcc6e2be	-0.024278041
115	0xbcf54e52	-0.029944573
116	0x3e53c94d	0.20682259
117	0x3e589e72	0.21154192
118	0x3e250f1f	0.1611905
119	0x3d126896	0.035744272
120	0x3d19ce2a	0.03755013
121	0xbd2498b5	-0.040184695
122	0x3d2c5749	0.04207543
123	0xbdfb429d	-0.12268565
124	0x3e0c65f1	0.13710763
125	0x3dc6f8d0	0.09715426
126	0x3e08b0ac	0.13348645
127	0x3e6cb529	0.23115982
128	0xbd346e6b	-0.044050615
129	0x3cc3142a	0.023813326
130	0x3e65bd76	0.22435555
131	0x3df78db2	0.12087573
132	0xbe17562a	-0.14778963
133	0x3dd5e6da	0.10444422
134	0x3e55e1e9	0.20886959
135	0x3dad8a1b	0.08473607
136	0xbbed60fe	-0.0072442284
137	0xbdf75b9a	-0.120780185
138	0x3ce1aa6a	0.02754708
139	0x3dfe6557	0.12421673
140	0x3e003364	0.12519604
141	0x3e232547	0.15932189
142	0x3d97d997	0.07414549
143	0x3e62b352	0.22138718
144	0x3e84239a	0.25808412
145	0x3e1755f0	0.14778876
146	0x3e48091f	0.1953473
147	0x3c01c586	0.007920628
148	0xbd8da6c6	-0.06916575
149	0x3d0fed59	0.03513846
150	0x3d1cb773	0.03826089
151	0x3c6aab66	0.014323091
152	0x3e11c7a6	0.14236316
153	0xbd21a5e1	-0.039464835
154	0x3e9643f5	0.29348722
155	0x3dc5c0fc	0.096559495
156	0x3e93bc52	0.28854614
157	0x3d691630	0.056905925
158	0x3e727755	0.23678334
159	0x3c66e82e	0.014093442
160	0x3bfc1b75	0.007693703
161	0x3e0ca46f	0.13734601
162	0x3de4654d	0.11152134
163	0x3e12de0d	0.14342518
164	0x3e431711	0.19051768
165	0x3dc1d9f3	0.09465399
166	0x3e2bfc32	0.16795424
167	0xbd43dc1f	-0.047817346
168	0x3e5a17dc	0.21298164
169	0x3dd88838	0.10572857
170	0x3de3a597	0.11115568
171	0xbd41458e	-0.047185473
172	0xb94cfab2	-0.00019548347
173	0x3df7e53b	0.12104269
174	0x3e0943bf	0.1340475
175	0x3e234622	0.15944722
176	0x3e091e2b	0.13390414
177	0xbd8eee67	-0.069790654
178	0xbd255cea	-0.040371813
179	0xbdd241f1	-0.102664836
180	0x3d02aec3	0.031904947
181	0x3e737a72	0.23777178
182	0x3e382c77	0.17985712
183	0x3da9dd1c	0.082941264
184	0xbe045879	-0.12924375
185	0x3e4f000e	0.20214865
186	0xbbf36f34	-0.007429028
187	0x3dcd4c7a	0.10024352
188	0x3e5f50a7	0.2180811
189	0x3c70c776	0.014695993
190	0x3e2fbc5b	0.17161696
191	0x3e154d59	0.14580287
192	0xbe122ac3	-0.14274125
193	0x3d90c2ab	0.0706838
194	0x3e1bc143	0.15210442
195	0xbda7fe6c	-0.08202824
196	0xbdce8fb1	-0.10086001
197	0xbe1e3242	-0.1544886
198	0xbda07239	-0.07834286
199	0xbdcd2799	-0.10017318
200	0x3d58ffc2	0.052978285
201	0xbdc54bee	-0.09633623
202	0x3c1372e5	0.008999561
203	0x3e3086fe	0.17238995
204	0x3e07fd41	0.13280202
205	0x3e945e42	0.28978163
206	0x3bb5f97b	0.005553422
207	0x3e40b6a5	0.18819673
208	0x3e632252	0.22181061
209	0x3dbf41cf	0.09338724
210	0x3e5facb7	0.21843229
211	0x3d86f19f	0.06589054
212	0xbca05617	-0.0195723
213	0x3e168167	0.146978
214	0x3dabf845	0.08396963
215	0x3e7a2bde	0.24430797
216	0x3e8963fe	0.268341
217	0x3d4bc790	0.049750865
218	0x3e279127	0.16363965
219	0xbda7452b	-0.081674896
220	0x3d445b0b	0.047938388
221	0x3de05bd4	0.10955015
222	0x3cc21a0c	0.02369406
223	0xbd9d9260	-0.076939344
224	0x3e58c113	0.21167402
225	0x3e893e6d	0.2680544
226	0x3e8e4344	0.27785695
227	0x3d0a2b34	0.033732608
228	0x3e81ba6a	0.25337535
229	0xbe096c93	-0.13420324
230	0x3da00fcc	0.07815513
231	0x3de22e0c	0.11043939
232	0x3d676c21	0.056499604
233	0x3e8ea078	0.27856803
234	0x3dde9b31	0.10869444
235	0x3bb12594	0.005406091
236	0xbda92fec	-0.082610935
237	0x3e59e135	0.21277316
238	0x3e267e4d	0.16259117
239	0x3ea781df	0.3271627
240	0xbe850a8b	-0.25984606
241	0xbde35e52	-0.111019745
242	0x3d7a4a31	0.06110591
243	0x3d6e6849	0.058204923
244	0x3e62321a	0.22089425
245	0x3e853826	0.260194
246	0x3d13461e	0.03595554
247	0x3dcea996	0.1009094
248	0xbe1ca95e	-0.15298983
249	0x3e21ba8c	0.15793818
250	0x3e84d538	0.25943923
251	0x3e8d90f2	0.27649647
252	0x3e64c2c8	0.22339928
253	0x3e547f9e	0.20751807
254	0x3e2f079d	0.17092748
255	0x3e1a5be5	0.15074117

lstm_cell1.weight_hh f4 [256, 64]
0	0x3ca7d96e	0.02048942
1	0x3e4418ee	0.19150135
2	0x3cb41627	0.02198322
3	0x3d124f0b	0.035719912
4	0x3e8b1c12	0.27169853
5	0x3cb60f49	0.022224085
6	0x3d26cdd4	0.040723637
7	0x3d118b43	0.0355332
8	0x3deef4d0	0.11667788
9	0x3be0a87c	0.0068560224
10	0x3e0110dc	0.12604088
11	0xbc3dbf30	-0.011581227
12	0xbe0c4d0f	-0.1370127
13	0xbe11438f	-0.14185928
14	0x3c9022e3	0.01759476
15	0xbdf95157	-0.121737175
16	0x3d18aa6b	0.0372719
17	0xbe180a68	-0.1484772
18	0xbdd56394	-0.10419384
19	0x3e388aa9	0.18021645
20	0x3e33ed79	0.17571057
21	0x3db5c367	0.08875161
22	0x3e266b4c	0.16251868
23	0xbe5e2f9f	-0.21697854
24	0x3c9c8a6f	0.019108979
25	0xbda228b0	-0.07917917
26	0xbc7507ce	-0.014955474
27	0x3da725cb	0.08161505
28	0xbe33402e	-0.17504951
29	0xbce3ad60	-0.027792633
30	0x3c520fec	0.012821179
31	0xbdf598aa	-0.11992009
32	0x3d088805	0.033332843
33	0x3d0f821b	0.035036188
34	0xbda7b19e	-0.08188175
35	0x3d6f9068	0.058487326
36	0xbdaa9560	-0.08329272
37	0x3d11dbcb	0.03561
38	0x3d8757e2	0.06608559
39	0x3d30d4ca	0.04317168
40	0xbdf85b3a	-0.12126775
41	0xbe2300ab	-0.15918224
42	0xbd8fc6c9	-0.07020337
43	0x3de885b7	0.11353629
44	0x3c0b1814	0.008489627
45	0x3e2b094f	0.1670277
46	0x3de329ac	0.11091933
47	0xbd078391	-0.033084456
48	0xbcab6408	-0.020921722
49	0x3e1cff54	0.15331775
50	0x3d1f1ed8	0.038847774
51	0x3e3f0031	0.18652417
52	0xbd181cfd	-0.03713702
53	0xbd6dba05	-0.05803873
54	0x3d5877e9	0.05284873
55	0x3e4a175d	0.19735475
56	0x3d0fbe17	0.035093393
57	0x3d1477de	0.036247127
58	0xbde474d1	-0.111550935
59	0xbe0a5ed2	-0.13512734
60	0x3e0f6272	0.14002398
61	0xbd823eb8	-0.06359619
62	0xbc7c2a20	-0.015390903
63	0x3dd0fcf2	0.102044955
64	0x3da98d39	0.08278889
65	0x3e915e64	0.28392327
66	0x3e7368ba	0.23770419
67	0x3c7936da	0.015210832
68	0x3e6876f7	0.22701631
69	0xbdec702d	-0.11544833
70	0x3db31aa8	0.08745319
71	0xbddb7753	-0.10716119
72	0xbe19dff3	-0.15026836
73	0x3d93d004	0.0721741
74	0xbe57c310	-0.21070504
75	0xba01bd70	-0.0004949188
76	0xbe4ca95a	-0.19986477
77	0xbdc3fc1b	-0.0956957
78	0x3d23b8c3	0.039971124
79	0xbdd2a925	-0.10286168
80	0x3e5f0150	0.21777844
81	0xbe477fe8	-0.19482386
82	0xbcafe6ce	-0.021472361
83	0x3d90417c	0.0704374
84	0xbe6cef99	-0.23138274
85	0x3e40b224	0.18817955
86	0x3e0d15a5	0.13777788
87	0xbe6961ee	-0.22791263
88	0xbe17a66e	-0.14809582
89	0x3c940233	0.018067455
90	0xbdc9affe	-0.09848021
91	0x3e1586a9	0.1460215
92	0xbe0d15a1	-0.13777782
93	0xbe43815e	-0.19092318
94	0xbe722e27	-0.23650418
95	0xbcd64ef0	-0.026160687
96	0x3d85aa04	0.065265685
97	0x3defd601	0.1171074
98	0xbe5471f2	-0.20746592
99	0xbe4a99d7	-0.19785248
100	0xbe845741	-0.2584782
101	0xbe3faa09	-0.18717207
102	0xbe03bb03	-0.12864308
103	0x3e190e61	0.14946891
104	0xbe32fdb3	-0.17479591
105	0xbde23795	-0.11045758
106	0xbd88f9d5	-0.06688277
107	0x3e0a2670	0.13491225
108	0xbe02113b	-0.12701885
109	0xbd10cd83	-0.03535224
110	0xbe374ffa	-0.17901602
111	0xbe0067ae	-0.1253955
112	0xbe1990c5	-0.14996631
113	0x3e7ea6cb	0.24868314
114	0x3e0f5036	0.13995442
115	0x3e4a734d	0.19770546
116	0xbe1a36c0	-0.15059948
117	0xbe53a36f	-0.20667814
118	0x3e7f9716	0.24959978
119	0xbd046e63	-0.032331835
120	0xbd4c71d5	-0.049913246
121	0x3dbad221	0.0912211
122	0x3e2b1329	0.16706528
123	0xbc09051c	-0.008363035
124	0x3d5c15e7	0.053731825
125	0xbbbd722e	-0.0057814335
126	0xbd8e96c2	-0.069623485
127	0x3d2c4485	0.042057533
128	0x3cec161d	0.028819138
129	0xbd7ae6f1	-0.0612554
130	0x3d16d046	0.03681972
131	0xbe18ac92	-0.1490958
132	0x3de900de	0.113771185
133	0x3d449be4	0.04800023
134	0xbe057a48	-0.13034928
135	0x3db595fb	0.08866497
136	0x3db1df3d	0.086851574
137	0xbe15bf96	-0.14623865
138	0x3db9cace	0.09071885
139	0xbda3c1c5	-0.07995943
140	0xbce29b9e	-0.027662095
141	0x3dc4223b	0.095768414
142	0xbc7765ff	-0.015100001
143	0xbdd661a7	-0.104678445
144	0xbe12a715	-0.14321549
145	0x3e32eaeb	0.17472427
146	0xbd99e5ed	-0.07514558
147	0x3d124e58	0.035719246
148	0x3cecfa50	0.028927952
149	0xbcc25b1a	-0.023725081
150	0xbde9d016	-0.11416642
151	0xbc96ab5a	-0.018392254
152	0x3d428859	0.047493313
153	0x3e12eeec	0.14348954
154	0xbd43812b	-0.047730606
155	0x3e3aa9fa	0.18228903
156	0xbdcdb734	-0.10044709
157	0xbd86a163	-0.06573751
158	0x3d889a24	0.06670025
159	0x3e05399a	0.13010255
160	0xbd0f1ce2	-0.034939654
161	0xbd87dc9e	-0.06633876
162	0xbd9775f8	-0.07395548
163	0x3d8f5a62	0.06999661
164	0x3d9d7697	0.07688635
165	0x3e284ab5	0.16434748
166	0x3c262e75	0.010142912
167	0x3b4bb088	0.0031080563
168	0x3cf3e15e	0.02977055
169	0x3d412e5e	0.04716336
170	0xbd5e2ffd	-0.054244984
171	0xbd603eee	-0.054747514
172	0x3d62c67e	0.05536508
173	0x3df1035a	0.117682174
174	0x3df3879e	0.11891101
175	0xbe30d893	-0.17270117
176	0x3df33d05	0.11876873
177	0xbe129305	-0.14313896
178	0xbd146162	-0.036225684
179	0x3d959855	0.07304446
180	0x3dac1f09	0.08404357
181	0xbe1b5dea	-0.15172544
182	0x3d17f202	0.03709603
183	0xbdd5b4f9	-0.104349084
184	0x3d9897dd	0.074508406
185	0xbd7b7054	-0.06138642
186	0x3e24d419	0.16096534
187	0xbcd9092c	-0.026493631
188	0x3d26fa8e	0.04076629
189	0x3c3f4b19	0.0116756195
190	0x3d7c662c	0.061620876
191	0x3d9072da	0.07053156
192	0x3d919160	0.07107806
193	0xbe07296f	-0.131994
194	0xbd1151f8	-0.035478562
195	0xbe1eb69c	-0.15499347
196	0x3d863b76	0.0655431
197	0x3c5ed7fb	0.013601298
198	0x3daba647	0.08381324
199	0xbd431641	-0.047628645
200	0x3df0172c	0.1172317
201	0x3cf7bf92	0.030242715
202	0x3e874baa	0.26424915
203	0xbd01ffc6	-0.031738065
204	0x3dd00834	0.101578146
205	0xbd85973e	-0.06522988
206	0x3d38715d	0.045029987
207	0x3d4e4e57	0.05036768
208	0xbe5f8a48	-0.21830094
209	0x3d7154a9	0.05891863
210	0x3dd6f9e0	0.104968786
211	0xb9fb4526	-0.0004792597
212	0x3e571140	0.21002674
213	0x3e2637ff	0.16232298
214	0xbd438aa5	-0.047739644
215	0xbdb3c418	-0.08777636
216	0x3dde3aad	0.10851035
217	0xbd320642	-0.043463
218	0x3e925ee6	0.28588027
219	0x3d3dce0e	0.046339087
220	0x3e25f984	0.16208464
221	0x3d474350	0.04864818
222	0x3d9b03bf	0.07569074
223	0xbdddb3ee	-0.108253345
224	0x3d72548d	0.059162665
225	0xbcfece89	-0.031104343
226	0x3eb328cc	0.34992063
227	0xbd669de1	-0.05630291
228	0x3df582ac	0.11987814
229	0xbd98a25a	-0.07452841
230	0x3c6baea1	0.0143848965
231	0xbcfe570f	-0.031047372
232	0xbcbe706a	-0.023246963
233	0x3d84a01a	0.064758494
234	0x3c8dc589	0.017306106
235	0xbd64502e	-0.055740528
236	0x3d4862e4	0.048922434
237	0xbe06b6dd	-0.13155694
238	0x3d08f7e7	0.033439543
239	0xbc89904a	-0.016792435
240	0x3e91d516	0.28482884
241	0xbdabf420	-0.083961725
242	0x3dca7513	0.098856114
243	0xbd15bf62	-0.03655947
244	0x3de3adbb	0.11117121
245	0x3df056d3	0.117353104
246	0xbe8f3be8	-0.27975392
247	0xbe240fd2	-0.1602166
248	0x3de0a72e	0.10969387
249	0xbdc83452	-0.09775604
250	0xbe4195a8	-0.18904746
251	0x3d477cf7	0.04870316
252	0x3dba94bb	0.09110399
253	0xbd9fe6b1	-0.07807673
254	0xbd302c56	-0.043011032
255	0x3c7682a0	0.015045792

lstm_cell1.bias_ih f4 [256]
0	0x3d2ce825	0.042213578
1	0x3e2f7170	0.17133117
2	0x3e4c1e58	0.1993345
3	0x3dd1c274	0.10242167
4	0x3dac5a2c	0.084156364
5	0x3d4e4c5d	0.050365794
6	0xba696406	-0.0008903149
7	0x3d8c6afc	0.06856343
8	0x3e04f913	0.1298564
9	0x3de9dbb3	0.114188574
10	0xbd955d0c	-0.07293138
11	0x3e0b63d4	0.136123
12	0x3cb80000	0.022460938
13	0x3e91516b	0.2838243
14	0x3dd1b37d	0.10239313
15	0x3dcba9a9	0.099444695
16	0xbe202d25	-0.15642221
17	0x3e777a73	0.24167804
18	0x3e7f0050	0.24902463
19	0x3d8801a1	0.06640936
20	0x3e38968e	0.18026182
21	0x3dd15517	0.10221308
22	0x3e6b47e3	0.22976641
23	0x3e4e97b6	0.2017506
24	0x3db1435b	0.08655425
25	0x3e0bc33a	0.13648692
26	0x3dd2d7b9	0.10295052
27	0x3d703ab6	0.05864974
28	0x3e172385	0.14759643
29	0x3e16b090	0.14715791
30	0x3e1ac475	0.15114005
31	0x3e32c1b1	0.174567
32	0x3dc7faf4	0.097646624
33	0x3e6fabb7	0.23405348
34	0x3e36aedc	0.17840141
35	0x3c891b88	0.01673676
36	0x3e35b59f	0.17745064
37	0x3d54a2b7	0.05191299
38	0x3e551483	0.20808606
39	0xbd965864	-0.07341078
40	0x3e80ada9	0.25132492
41	0x3d834083	0.06408789
42	0x3e0cd073	0.13751392
43	0x3e242605	0.16030128
44	0x3e2c7ab3	0.16843681
45	0x3dc15262	0.094395414
46	0xbc922cc3	-0.01784361
47	0x3d0f94b3	0.03505392
48	0xbd9ff8f5	-0.07811157
49	0x3e7adcba	0.24498263
50	0x3d8f8194	0.07007137
51	0x3e267066	0.16253814
52	0x3e42ac90	0.1901114
53	0x3e42d666	0.19027099
54	0x3e3d0763	0.18459849
55	0x3db39c6a	0.08770068
56	0x3dbbd087	0.09170633
57	0x3e360e95	0.17779
58	0x3e908010	0.28222704
59	0x3cf574b4	0.029962875
60	0x3e90cbff	0.28280637
61	0x3e575f01	0.21032335
62	0x3d9fd80f	0.07804882
63	0x3db482db	0.08814021
64	0xbe0b2691	-0.1358893
65	0xbd719737	-0.0589821
66	0xbdbdb941	-0.0926385
67	0x3d902ab8	0.07039398
68	0xbd63be89	-0.05560163
69	0x3d34e353	0.044162106
70	0xbc56d732	-0.01311283
71	0x3d5fb679	0.05461738
72	0xbd3cadba	-0.046064116
73	0x3deb8187	0.11499315
74	0x3da0b5d2	0.078471795
75	0x3dae5317	0.08511942
76	0x3ddf926d	0.109166004
77	0xbdba4838	-0.09095806
78	0x3e0850b9	0.13312043
79	0x3dd9bd58	0.106318176
80	0x3e4c607d	0.19958682
81	0x3e537692	0.206507
82	0x3e3b0493	0.18263464
83	0xbc7233ef	-0.01478289
84	0x3e246f91	0.16058184
85	0x3d443165	0.04789867
86	0x3d8c44a4	0.0684903
87	0xbdec9e6a	-0.115536526
88	0xbdae9e92	-0.08526339
89	0x3dd0b793	0.10191264
90	0xbd0c0025	-0.034179825
91	0x3daad998	0.08342284
92	0x3db3f0b1	0.087861426
93	0x3df8f45d	0.121559836
94	0xbc843357	-0.016137762
95	0x3dc9608c	0.09832868
96	0x3d06c903	0.032906543
97	0x3c5d2551	0.013497666
98	0x3e750bbc	0.23930258
99	0x3def686f	0.11689841
100	0xbd36ee6e	-0.044660978
101	0xbd880cbf	-0.06643056
102	0x3cb2aa9e	0.021809872
103	0x3d492dae	0.04911583
104	0x3d74c990	0.059762537
105	0x3dbbaefa	0.091642335
106	0x3da9728c	0.08273801
107	0xbe0f64d9	-0.14003314
108	0xbd52c6bf	-0.05145907
109	0xbcf58992	-0.029972825
110	0x3e06c10a	0.13159576
111	0x3db45dd9	0.088069625
112	0x3d4487e5	0.04798116
113	0xbd3c5c0a	-0.045986213
114	0xbdea3922	-0.114366785
115	0x3d063d1b	0.03277312
116	0x3d89874d	0.0671526
117	0x3dce582c	0.10075411
118	0x3d1290d5	0.035782654
119	0x3db6207a	0.08892913
120	0xbc2b5d72	-0.010459291
121	0x3a4bb6d5	0.00077710795
122	0xbd40256c	-0.04691069
123	0x3d2020df	0.03909385
124	0xbc0ed35f	-0.008717387
125	0x3e0db9ce	0.1384041
126	0xbd410ccb	-0.04713134
127	0x3def9da2	0.11699988
128	0xbd836be9	-0.064170666
129	0xbd8c8a7c	-0.06862351
130	0xbd08391c	-0.03325759
131	0xbe01eb05	-0.12687309
132	0x3cc3d6a1	0.023906054
133	0x3caf372c	0.021388613
134	0xbcd47f1b	-0.025939515
135	0xbd859bff	-0.065238945
136	0xbdb81e86	-0.08990197
137	0xbe1cf25a	-0.15326825
138	0xbdd2f541	-0.10300685
139	0xbdc06241	-0.093937404
140	0xbcbb0a58	-0.02283208
141	0x3d547cff	0.051877018
142	0xbdeca772	-0.11555375
143	0x3e12c2c8	0.14332116
144	0x3d17ff46	0.037108682
145	0xbd26bd52	-0.040707894
146	0x3e16c176	0.14722237
147	0xbe0f2a93	-0.13981085
148	0x3dee9c77	0.11650937
149	0x3c5423c5	0.012947981
150	0xbe1a4a6a	-0.15067449
151	0x3daec1cd	0.08533058
152	0x3dc176f2	0.09446515
153	0x3e373019	0.17889442
154	0x3d67c52d	0.056584526
155	0xbc8ed4a9	-0.017435389
156	0x3dd72842	0.105057254
157	0x3e029688	0.12752736
158	0x3e1e1041	0.15435888
159	0x3dc17c9c	0.094475955
160	0xbe2e6c4e	-0.17033502
161	0x3c82f40d	0.015985513
162	0xbd976bfa	-0.07393642
163	0x3dcf2a71	0.10115517
164	0xbd60362d	-0.054739166
165	0x3e220783	0.15823178
166	0xbd55df51	-0.052214924
167	0xbe023508	-0.12715542
168	0xbd754c59	-0.059887264
169	0x3dec28ad	0.11531196
170	0x3ddb6f37	0.10714572
171	0x3db023f7	0.0860061
172	0x3df7783b	0.12083479
173	0xbe1473f1	-0.14497353
174	0x3cbd8169	0.023132997
175	0x3e4d6cfb	0.20061104
176	0xbd132078	-0.035919636
177	0xbdc0e5f4	-0.0941886
178	0xbde12aa5	-0.10994462
179	0xbd8ab517	-0.067728214
180	0x3e222645	0.15834911
181	0x3e232fd9	0.15936221
182	0xbcb83ed6	-0.0224909
183	0xbe08c3ea	-0.13355985
184	0x3d171522	0.03688539
185	0xbc6e45df	-0.014543026
186	0xbe23fd64	-0.1601463
187	0x3dd46969	0.10371668
188	0xbd9219fa	-0.07133861
189	0xbd4daaa8	-0.05021158
190	0x3d0b77fc	0.034049973
191	0x3cb690de	0.022285875
192	0x3d1a92c3	0.03773762
193	0x3de15f47	0.11004501
194	0x3d277cf4	0.04089065
195	0x3dbf61ed	0.0934485
196	0x3e641900	0.22275162
197	0x3d9da1ac	0.07696852
198	0x3cceabd7	0.025228424
199	0x3e2d8936	0.16946873
200	0x3e270a06	0.16312417
201	0xbd48de54	-0.049040154
202	0x3dfc235e	0.12311433
203	0x3dd46805	0.10371403
204	0x3d86d1cd	0.06582985
205	0x3e386d14	0.1801036
206	0x3da8b089	0.082367964
207	0x3dc2fde0	0.09521079
208	0xbdab2d14	-0.08358207
209	0xbc71948c	-0.014744889
210	0x3e0d1ca6	0.1378046
211	0x3e49d719	0.1971096
212	0x3dc5613b	0.09637686
213	0x3dea8166	0.11450462
214	0xbcb7ed2c	-0.02245196
215	0x3e011453	0.1260541
216	0x3e01ee18	0.12688482
217	0xbc0e6fb6	-0.008693626
218	0x3e60d1f4	0.21955091
219	0x3e5f1585	0.21785553
220	0x3e29a3fb	0.1656646
221	0x3c5604ba	0.01306265
222	0x3e6761a8	0.22595847
223	0xbcdaaea8	-0.02669461
224	0xbc861214	-0.016366042
225	0x3e2ff81b	0.17184488
226	0x3e5ce9fe	0.21573636
227	0x3e184ee8	0.1487385
228	0x3e5fea6e	0.21866772
229	0x3e568d08	0.20952237
230	0x3e6758cf	0.22592472
231	0xbd47769a	-0.04869709
232	0x3e6bc8f6	0.2302588
233	0x3bd69f95	0.0065497854
234	0x3de55ea3	0.11199691
235	0xbc2c586f	-0.010519131
236	0x3dc9fb8b	0.09862431
237	0x3e490096	0.1962913
238	0x3e2b720b	0.16742723
239	0x3dc722dc	0.09723446
240	0x3e4cd343	0.20002465
241	0x3e63ca23	0.22245078
242	0x3ccaed6c	0.024771415
243	0x3d323f34	0.043517306
244	0x3e54d6e9	0.20785107
245	0x3e1bf565	0.1523033
246	0x3db1e253	0.08685746
247	0x3bb3d616	0.0054881675
248	0x3d811f04	0.06304744
249	0xbd7ea86c	-0.06217234
250	0x3daaea75	0.083455004
251	0x3e689e05	0.2271653
252	0x3da25d79	0.07927985
253	0x3dc0c93e	0.09413384
254	0x3d993c6e	0.07482229
255	0x3e1c64ec	0.15272874

lstm_cell1.bias_hh f4 [256]
0	0x3ca36d69	0.019949632
1	0x3e1fa198	0.15588987
2	0x3de935bb	0.113872014
3	0x3ce15809	0.027507799
4	0x3df6824d	0.12036572
5	0xbc747042	-0.0149193425
6	0x3cdc6318	0.02690272
7	0x3b82c022	0.003990189
8	0xbc223988	-0.009901412
9	0x3de316d3	0.11088338
10	0x3cec8425	0.028871605
11	0x3deb2a4c	0.11482677
12	0x3e53cdb9	0.20683946
13	0x3e3997ee	0.18124363
14	0x3e25cea8	0.16192114
15	0x3dc9d9cd	0.09855995
16	0x3d5db3ae	0.054126434
17	0x3d83a870	0.06428611
18	0x3d6f5dac	0.05843894
19	0x3e41f512	0.18941143
20	0x3d041295	0.032244284
21	0x3e2128db	0.15738241
22	0x3e6448a7	0.2229334
23	0x3ddead93	0.108729504
24	0x3e24c385	0.1609021
25	0x3cd5fee7	0.026122523
26	0x3ddc407d	0.10754488
27	0x3e786451	0.24257018
28	0x3df34e42	0.11880161
29	0x3e313036	0.17303547
30	0x3e99045a	0.29886132
31	0x3d3cc7a9	0.04608885
32	0x3dce9688	0.10087305
33	0x3dbe9332	0.09305419
34	0x3e2de3c2	0.16981414
35	0x3d9441af	0.07239091
36	0x3d795727	0.06087413
37	0xbbfac94c	-0.007653391
38	0x3e691f9f	0.22765969
39	0x3d461aaf	0.04836529
40	0x3dfdfe92	0.12402071
41	0x3dc29627	0.095012955
42	0x3e27e263	0.16394953
43	0x3d569444	0.05238749
44	0x3d3f2ea8	0.046675354
45	0x3e35e46c	0.17762917
46	0x3e0b451c	0.13600582
47	0x3daf1ce0	0.08550429
48	0x3d17f799	0.037101362
49	0x3c892fe9	0.016746478
50	0x3d94c335	0.07263795
51	0x3e664520	0.22487307
52	0x3d9fedda	0.078090385
53	0x3d712066	0.05886879
54	0x3b851ba0	0.004062131
55	0x3e0fa007	0.1402589
56	0x3da9caff	0.082906716
57	0x3e51af4d	0.20477028
58	0x3dacad5c	0.08431503
59	0x3e54ec3f	0.20793246
60	0x3d9439ca	0.07237585
61	0x3e699f81	0.22814752
62	0x3e186901	0.14883806
63	0x3e6a9b8b	0.22910897
64	0xbbf6a91a	-0.0075274827
65	0xbd8c86f3	-0.06861677
66	0x3dea81fc	0.11450574
67	0xbd83b7ac	-0.06431517
68	0x3c1bc2ae	0.0095068645
69	0xbd38e23a	-0.04513762
70	0xbda7dd0d	-0.08196459
71	0xbdaf4fd4	-0.08560148
72	0xbd7d7e54	-0.061888054
73	0x3e18dd10	0.14928079
74	0x3e28cfcf	0.16485523
75	0xbbb61f3f	-0.005557924
76	0xbc89f649	-0.01684107
77	0x3dd9bed4	0.10632101
78	0x3e0e3852	0.13888672
79	0x3d9ad0fe	0.07559393
80	0x3e00fb50	0.12595868
81	0x3e03d927	0.12875806
82	0x3e0c1ad5	0.1368211
83	0x3d8da72f	0.06916653
84	0x3e0285f8	0.12746418
85	0x3df7eb3f	0.121054165
86	0x3dc75617	0.09733217
87	0x3c694257	0.014237008
88	0xbd851811	-0.06498731
89	0x3dbece59	0.093167014
90	0x3e11c27a	0.14234343
91	0x3df82492	0.1211635
92	0xbd8f1b5b	-0.069876395
93	0xbc922561	-0.01784009
94	0xba51e43e	-0.0008006728
95	0x3dcbbeb8	0.09948486
96	0xbdbcd0e6	-0.09219532
97	0x3d148c0a	0.036266364
98	0x3e5aea60	0.2137847
99	0x3c167833	0.009183931
100	0x3ddfebce	0.10933648
101	0xbe0eaf05	-0.13933952
102	0x3db14f7a	0.08657737
103	0xbd4a3eda	-0.049376346
104	0x3d1e2138	0.0386059
105	0xbd2de8b3	-0.042458247
106	0x3cfd549e	0.030924138
107	0xbd2fb7d3	-0.042899918
108	0x3e1f3a9a	0.15549698
109	0x3dface98	0.12246436
110	0x3e3ab23c	0.18232054
111	0x3d1716a3	0.036886822
112	0x3e1e0990	0.15433335
113	0xbbec44ac	-0.0072103348
114	0xbdba34ee	-0.09092127
115	0x3de3c93d	0.111223675
116	0x3d73f212	0.059557028
117	0xbd24a4b1	-0.040196124
118	0xbd3ffa9b	-0.046869855
119	0xbda86826	-0.0822299
120	0x3db9fe14	0.09081665
121	0x3ce67d33	0.028135872
122	0xbcbef679	-0.023310887
123	0xbd1706b5	-0.03687163
124	0xbdeb1386	-0.11478333
125	0xbc4fce1e	-0.0126834195
126	0x3e0f392f	0.13986658
127	0x3e15395c	0.14572662
128	0xbab86ded	-0.0014070846
129	0x3de90594	0.11378017
130	0xbe128dc4	-0.14311892
131	0xbe1ee049	-0.15515245
132	0xbd8e0671	-0.06934822
133	0x3e0eb3e4	0.1393581
134	0xbdb6dc9b	-0.08928796
135	0x3cdc6ef1	0.02690837
136	0x3d55f680	0.052237034
137	0xbe325744	-0.17416102
138	0x3da369b7	0.07979148
139	0xbdb6b02d	-0.089203216
140	0x3e29a790	0.16567826
141	0x3e1bc83f	0.15213107
142	0xbe06a66c	-0.13149422
143	0x3d93c7ab	0.07215818
144	0x3dd2415e	0.10266374
145	0x3d2790e0	0.040909648
146	0x3ccbee7b	0.02489399
147	0xbd7eba5d	-0.06218945
148	0x3df5094b	0.11964663
149	0xbe0c106c	-0.1367814
150	0x3c557200	0.013027668
151	0x3e35ee89	0.17766775
152	0x3e08144f	0.13288997
153	0x3e049fd2	0.12951592
154	0x3d57efeb	0.052719038
155	0xbda005d6	-0.07813613
156	0x3e249c63	0.16075282
157	0x3e261fd8	0.16223085
158	0x3d3e9783	0.04653121
159	0xbb521fc7	-0.0032062398
160	0x3bdbfcde	0.0067134937
161	0x3db3539f	0.08756184
162	0x3dab3cee	0.08361231
163	0xbd8560f9	-0.06512637
164	0x3e1a1dec	0.15050477
165	0xba92a7e5	-0.0011188952
166	0x3e44a6b1	0.19204213
167	0x3d9d16b6	0.076703474
168	0x3dad9f78	0.08477682
169	0x3cb1a758	0.021686241
170	0xbc9cb65c	-0.019129924
171	0xbdc3318f	-0.09530937
172	0xbda00a77	-0.07814496
173	0xbb91d954	-0.0044509564
174	0xbca3169f	-0.019908248
175	0x3df55b32	0.11980285
176	0xbcf1fc89	-0.029539363
177	0xbca0767d	-0.01958775
178	0xbe1694f9	-0.14705266
179	0x3b1dbfee	0.0024070698
180	0x3dea96d9	0.11454553
181	0x3d0ab156	0.033860527
182	0xbdae1f2d	-0.0850204
183	0xbd2156bb	-0.039389353
184	0x3e0822e3	0.13294558
185	0xbce924d7	-0.02845995
186	0xbd095961	-0.033532504
187	0x3dabed73	0.08394899
188	0xbe0546d0	-0.13015294
189	0x3dc2b7e0	0.095077276
190	0x3ad7a078	0.0016451022
191	0xbe27f479	-0.16401853
192	0x3e3a6d18	0.18205678
193	0x3e13b599	0.14424743
194	0x3ca05ba7	0.019574953
195	0x3e2f85e6	0.17140922
196	0x3e51c840	0.20486546
197	0x3e2236ab	0.15841167
198	0x3dbfd9b2	0.09367694
199	0x3e012a8b	0.12613885
200	0x3e1861d8	0.14881074
201	0x3e3a5602	0.18196872
202	0xb97c6c6f	-0.00024072987
203	0x3e080e65	0.13286741
204	0x3e09ab42	0.13444236
205	0x3e2fc55a	0.17165127
206	0x3da7acb5	0.08187238
207	0x3d80f046	0.062958285
208	0xbddf7de2	-0.10912682
209	0x3d9cbebc	0.07653567
210	0x3e0b0094	0.1357444
211	0x3e667ec5	0.22509296
212	0x3daeeac1	0.085408695
213	0x3d5b5355	0.05354627
214	0x3d674ecb	0.056471627
215	0x3e1388bd	0.1440763
216	0x3df9bfd1	0.12194789
217	0x3de2526c	0.11050877
218	0x3de2e9a4	0.1107972
219	0x3e1b73f9	0.15180959
220	0x3e5610ab	0.20904796
221	0x3e43391d	0.19064756
222	0x3e6a1b82	0.22862056
223	0x3cb2c24b	0.021821162
224	0x3d96238b	0.07330998
225	0x3e2f323d	0.17109008
226	0x3e62a2a1	0.2213235
227	0xbcba0fbc	-0.02271258
228	0x3e0119e2	0.1260753
229	0x3d1c330b	0.038134616
230	0x3d8570f4	0.06515685
231	0x3e069d9d	0.13146062
232	0x3e3fd478	0.18733394
233	0x3e1c4f42	0.1526461
234	0x3d1d3d13	0.038388323
235	0xbc297383	-0.010342482
236	0x3e537cec	0.20653123
237	0x3e4d8602	0.20070651
238	0x3e66177b	0.22469895
239	0xbaa7058b	-0.0012742741
240	0x3d511542	0.051045664
241	0x3de7be5e	0.113156065
242	0x3e334f5b	0.1751074
243	0x3d99ed42	0.075159565
244	0x3ea18c36	0.31552285
245	0x3e0ab32f	0.13544916
246	0x3e408c2d	0.18803473
247	0x3dfaadcb	0.1224018
248	0x3d23c9ed	0.039987493
249	0xbcf5caa0	-0.030003846
250	0x3e2ccc31	0.16874768
251	0x3e32084b	0.17385976
252	0x3e0e7d3b	0.13914959
253	0x3e534d8a	0.20635048
254	0x3d882782	0.066481605
255	0x3e224a9e	0.15848777

lstm_cell2.weight_ih f4 [256, 64]
0	0xbd80da77	-0.06291669
1	0x3cea6cb0	0.02861628
2	0xbe215dc8	-0.15758431
3	0xbde01a3b	-0.10942503
4	0xbd150ac5	-0.036387224
5	0x3e899d86	0.26877993
6	0xbdd9ddfa	-0.10638042
7	0xbcf4c069	-0.029876905
8	0x3d10e77f	0.035377022
9	0xbe7ce426	-0.24696407
10	0x3d0e4c7a	0.034740902
11	0xbd4c2691	-0.049841467
12	0x3e4d6dda	0.20061436
13	0x3e83d015	0.25744691
14	0xbd3e8023	-0.04650892
15	0x3e152101	0.14563371
16	0x3e1e4a34	0.15457994
17	0x3e136be5	0.14396627
18	0x3e5f632c	0.21815175
19	0xbe82128a	-0.2540477
20	0x3bdd113f	0.0067464407
21	0xbe133f9b	-0.14379732
22	0xbe8908ad	-0.26764432
23	0x3d8bd631	0.06827963
24	0x3ddeb5e8	0.108745396
25	0x3ead72b9	0.3387659
26	0xbd9bd265	-0.07608489
27	0xbe89b170	-0.26893187
28	0x3d3e1936	0.04641076
29	0x3dd54404	0.104133636
30	0x3de8881b	0.11354085
31	0x3e813039	0.25232103
32	0xbdafa184	-0.085757285
33	0xbd002ba6	-0.031291626
34	0x3d83cd97	0.064356975
35	0x3cbcb28d	0.023034358
36	0x3e11872b	0.14211719
37	0x3dec9121	0.11551119
38	0x3d4814b6	0.048847876
39	0xbdff923e	-0.12479065
40	0x3e76bcf9	0.24095525
41	0x3de03ca8	0.10949069
42	0xbd397861	-0.045280818
43	0xbda92a99	-0.08260078
44	0x3d887dc1	0.06664611
45	0xbd911075	-0.07083217
46	0xbdadc2f2	-0.084844485
47	0x3e5a372e	0.21310112
48	0xbe2ec6e2	-0.17068055
49	0xbe80a2c3	-0.25124177
50	0xbdf6b762	-0.12046696
51	0xbe0a668d	-0.13515683
52	0x3d11eb24	0.03562464
53	0xbcbb91f4	-0.022896744
54	0x3d86b002	0.065765396
55	0xbe515a7b	-0.20444672
56	0x3d7ff014	0.062484816
57	0xbb80f132	-0.0039350027
58	0xbdd62a1f	-0.10457253
59	0x3e4dd106	0.20099267
60	0xbc64c7b5	-0.0139636295
61	0x3eb04c2f	0.34433123
62	0x3e42beef	0.19018148
63	0xbe1a3b40	-0.15061665
64	0xbd94be93	-0.07262912
65	0xbd939395	-0.072058834
66	0xbe31a0fa	-0.17346564
67	0xbe101a7c	-0.14072603
68	0xbe2da651	-0.16957976
69	0xbd518bbf	-0.051158663
70	0xbdaa9d4c	-0.08330783
71	0xbc93b969	-0.018032746
72	0x3dc8e79c	0.09809801
73	0xbdb87b81	-0.090079315
74	0xbdbfbeb3	-0.09362545
75	0xbdf14d23	-0.11782291
76	0x3e2e9373	0.17048435
77	0xba0da940	-0.00054039434
78	0x3d2275fa	0.039663292
79	0xbd2e8c9c	-0.042614564
80	0x3dfa5ad3	0.122243546
81	0xbd4bb978	-0.049737424
82	0x3e0f6479	0.14003171
83	0xbdf68f11	-0.120390065
84	0x3cdcb392	0.026941095
85	0x3d63536f	0.05549949
86	0x3e0a931f	0.13532685
87	0x3c30424e	0.010757996
88	0x3e2e1dbb	0.17003529
89	0x3da56e5f	0.08077692
90	0xbd78830a	-0.060671844
91	0xbe09db0c	-0.13462466
92	0xbc5b55b3	-0.0133871315
93	0x3daa214b	0.083071314
94	0xbc33c3d6	-0.010971984
95	0xbd8a6f3c	-0.067594975
96	0x3d3ef92a	0.04662434
97	0xbd869083	-0.06570532
98	0x3dbd5718	0.092451274
99	0xbcef3ff0	-0.029205292
100	0xbd918dc1	-0.071071155
101	0xbdb7a609	-0.089672156
102	0xbdfd04a1	-0.123543985
103	0xbc0d46fd	-0.008622882
104	0x3ca83a38	0.020535573
105	0x3dbd8e07	0.09255605
106	0x3d0be100	0.034150124
107	0x3d8ccea4	0.06875351
108	0x3e338f01	0.1753502
109	0xbe17e76b	-0.14834373
110	0xbd5c5fb7	-0.05380222
111	0x3de6f09f	0.112763636
112	0x3d0a253e	0.033726923
113	0xbd9707a5	-0.07374505
114	0xbdb35fa9	-0.0875848
115	0xbdb49e38	-0.0881924
116	0xbd0a9503	-0.033833515
117	0x3e06b909	0.13156523
118	0xbdd305da	-0.103038505
119	0x3d1786bd	0.03699373
120	0x3c23d334	0.009999085
121	0xbdf7e95d	-0.121050574
122	0x3df9eda2	0.12203528
123	0x3ccb2705	0.02479888
124	0xbc666f5b	-0.014064635
125	0xbcca7dd9	-0.024718212
126	0x3e4c4f24	0.19952065
127	0xbdd2b556	-0.10288493
128	0xbdc036d7	-0.0938546
129	0xbdd3a9f1	-0.10335148
130	0xbe39046d	-0.18068095
131	0xbdfe452f	-0.124155395
132	0xbe1e4a94	-0.15458137
133	0x3e59d2ca	0.21271816
134	0xbd00785e	-0.03136479
135	0x3e5df594	0.21675712
136	0xbd8a57b9	-0.06755013
137	0xbd14900a	-0.03627018
138	0xbc09a500	-0.0084011555
139	0xbde9b82c	-0.11412081
140	0x3ca700a7	0.020386053
141	0x3e02b76a	0.1276528
142	0xbdb05ca5	-0.086114205
143	0x3e0a06bc	0.13479131
144	0x3dab6da2	0.0837052
145	0x3e0b4c6f	0.13603376
146	0x3ca7c98a	0.020481844
147	0xbe6a8c88	-0.22905171
148	0x3e054c60	0.13017416
149	0xbbc7f407	-0.0061020884
150	0xbdb95def	-0.090511195
151	0x3cd5e157	0.026108427
152	0x3e788b08	0.24271786
153	0x3dc5da58	0.096607864
154	0xbce3455d	-0.027743036
155	0xbd162c78	-0.036663502
156	0x3e4c001b	0.19921915
157	0x3bb13856	0.005408327
158	0x3e590450	0.21193051
159	0x3de91625	0.11381177
160	0xbdfd4c26	-0.1236804
161	0x3ca4d688	0.020121828
162	0x3bf9eb1a	0.0076269032
163	0x3e0a3882	0.13498119
164	0x3ddfc461	0.10926128
165	0x3e401dc6	0.18761358
166	0x3d5dcec5	0.05415227
167	0xbe45309e	-0.19256827
168	0x3d50c552	0.05096943
169	0x3dd52bb7	0.104087286
170	0x3dd4b8c0	0.10386801
171	0xbd5812f8	-0.052752465
172	0x3cfeb0f6	0.03109024
173	0xbe5c2e57	-0.21502052
174	0x3e507b5f	0.20359562
175	0x3e05797a	0.13034621
176	0x3cad7598	0.021174237
177	0xbc74057a	-0.014893884
178	0xbda321d2	-0.07965435
179	0xb8bbe53b	-8.959552e-05
180	0x3dea29a5	0.11433724
181	0x3c998f75	0.018745163
182	0xbe2148f4	-0.15750486
183	0xbe3ce21c	-0.18445629
184	0x3d6b8b8a	0.05750612
185	0xbe291f26	-0.16515788
186	0x3ae33065	0.0017333148
187	0x3e6dc3c1	0.23219205
188	0xbc44d2c6	-0.012013143
189	0xbb63b057	-0.0034742558
190	0x3d989931	0.07451094
191	0xbdb2781c	-0.08714315
192	0xbde8a8c4	-0.113603145
193	0xbdba1b1c	-0.09087202
194	0xbc318954	-0.010835964
195	0xbd40b17b	-0.04704426
196	0x3cee09ba	0.029057372
197	0x3d2e4c64	0.04255332
198	0xbe071cae	-0.13194534
199	0xbc8c390c	-0.017117046
200	0x3c784cc7	0.015155024
201	0xbdcea931	-0.100908644
202	0x3d05fcd7	0.03271183
203	0xbd691f78	-0.056914777
204	0xbd6da5be	-0.058019392
205	0x3d858789	0.06519992
206	0xbe274bd3	-0.16337518
207	0x3e84f7cf	0.25970313
208	0x3e0a003b	0.1347665
209	0x3e108e3c	0.14116758
210	0x3e0a0ca7	0.13481389
211	0xbe6831d3	-0.22675256
212	0x3e4a0924	0.1973005
213	0x394a3455	0.00019283716
214	0x3dbc6aa0	0.092000246
215	0x3d6ce598	0.057836145
216	0x3e5dbc63	0.21653895
217	0x3e13c828	0.14431822
218	0xbe32244d	-0.1739666
219	0xbd669a2d	-0.056299377
220	0x3d8759fe	0.066089615
221	0x3e832cfb	0.25620255
222	0x3e3e11c2	0.18561462
223	0x3dd2b3ee	0.10288225
224	0xbe090763	-0.13381724
225	0xbbe9733e	-0.0071243336
226	0xbdf1f214	-0.11813751
227	0x3e1498bf	0.14511393
228	0x3e15b9ed	0.14621706
229	0x3e4cf684	0.20015913
230	0x3e99f1e4	0.3006736
231	0xbe082167	-0.13293992
232	0xbcfad603	-0.030619627
233	0xbb98b91e	-0.0046607396
234	0x3d8aaa60	0.06770778
235	0xbe4e49e1	-0.2014537
236	0x3e05fd61	0.13084938
237	0xbd9d2569	-0.07673151
238	0x3e3fdae7	0.18735848
239	0x3ddf1dc2	0.10894348
240	0x3c8ebbea	0.017423589
241	0xbcbd9a89	-0.023144977
242	0xbdfdd31e	-0.12393783
243	0xbe40a6e9	-0.18813671
244	0x3da15be8	0.07878858
245	0x3d0ef0b8	0.034897536
246	0x3dd244f4	0.10267058
247	0xbda10677	-0.07862561
248	0x3e570a8a	0.21000114
249	0xbbe5c697	-0.007012199
250	0xbe47a339	-0.19495858
251	0x3dbccad9	0.092183776
252	0xbda7a33c	-0.08185431
253	0x3e1dc1c3	0.15405945
254	0x3dba6b1f	0.09102463
255	0xbde482d4	-0.11157766

lstm_cell2.weight_hh f4 [256, 64]
0	0xbe2d07cd	-0.16897507
1	0xbe01692f	-0.1263778
2	0xbe081eac	-0.1329295
3	0x3e2a97c0	0.1665945
4	0xbe431932	-0.1905258
5	0x3cef2de6	0.02919669
6	0x3dcdfccb	0.10057982
7	0x3df524f8	0.11969942
8	0xbdb120cf	-0.08648836
9	0x3e5bf566	0.21480331
10	0xbe79f002	-0.24407962
11	0xbe92e558	-0.286906
12	0xbc6260a2	-0.013816984
13	0x3d8f845f	0.0700767
14	0xbed942e7	-0.42433855
15	0x3e5c110f	0.21490882
16	0xbe697a68	-0.228006
17	0x3de74505	0.11292461
18	0x3efb89c7	0.49128553
19	0xbd1411e7	-0.036149886
20	0xbcbd89b8	-0.023136958
21	0xbde00393	-0.10938182
22	0xbdc9f8d1	-0.09861911
23	0xbea6d55e	-0.3258466
24	0x3df9123d	0.12161682
25	0xbe195894	-0.14975196
26	0x3e5c8ff7	0.21539293
27	0x3e8ae0c5	0.2712461
28	0xbe416188	-0.18884861
29	0x3eaf40a6	0.3422901
30	0xbdd212b8	-0.102574766
31	0x3b0e86cc	0.0021747826
32	0x3e19b4a7	0.1501032
33	0x3e3385cb	0.17531507
34	0x3e17f4c2	0.14839461
35	0xbddd5f60	-0.10809207
36	0x3e3548c2	0.17703536
37	0xbac423bd	-0.0014964264
38	0xbc1db1a0	-0.009624869
39	0xbd90d194	-0.07071224
40	0xbe2cb9fd	-0.16867824
41	0x3ddd47ad	0.10804687
42	0xbd36b19b	-0.04460297
43	0x3e40aa2e	0.18814918
44	0xbe416a7c	-0.18888277
45	0xbcc9a0b4	-0.024612762
46	0x3ea19380	0.31557846
47	0x3e32bc9a	0.17454758
48	0x3def3d5b	0.116816245
49	0x3d8ed8cc	0.069749445
50	0xbe6ab7ac	-0.22921628
51	0x3ddb793c	0.10716483
52	0x3e3df48a	0.18550315
53	0xbe38e701	-0.18056871
54	0x3bab566b	0.0052288077
55	0x3d42186e	0.04738658
56	0x3997c322	0.0002894635
57	0x3ea9dc5b	0.3317593
58	0xbe69b9a7	-0.22824727
59	0xbe7515ef	-0.23934148
60	0x3df62425	0.12018613
61	0xbe6ebddb	-0.23314612
62	0x3c8b1e55	0.016982237
63	0xbea21964	-0.31659997
64	0x3e5226cb	0.20522611
65	0x3d574ad3	0.052561592
66	0xbd9d9901	-0.07695199
67	0x3dedb15d	0.11606095
68	0x3dce5cd7	0.100763015
69	0xbd8297cd	-0.0637661
70	0x3dfec0fb	0.12439152
71	0x3d40d492	0.047077723
72	0xbd9ac84a	-0.07557733
73	0x3e90e62b	0.28300604
74	0xbcc08c59	-0.023504423
75	0x3d526fce	0.051376157
76	0x3da137bb	0.07871958
77	0x3e2a230b	0.1661493
78	0xbc8e9d2f	-0.017408935
79	0x3df0fafb	0.11766621
80	0xbe801aac	-0.2502035
81	0xbe02e8c6	-0.12784109
82	0xbc5a101c	-0.013309505
83	0xbcef9d6a	-0.029249866
84	0x3e5be1fb	0.21472923
85	0xbd01d25f	-0.031694766
86	0xbe6476c0	-0.22310925
87	0xbc18911e	-0.009311942
88	0x3be9d17d	0.0071355687
89	0xbe182d4d	-0.14861031
90	0x3db4384b	0.087997995
91	0xbda9ade2	-0.08285119
92	0x3e8412d1	0.25795606
93	0xbcf6940c	-0.030099891
94	0x3d96ee1e	0.07369636
95	0xbd951de7	-0.07281094
96	0x3e872c5f	0.2640104
97	0x3e5eae50	0.21746182
98	0xbd082798	-0.033240885
99	0xbe135279	-0.1438693
100	0x3d6e9538	0.058247775
101	0x3e7ec3b9	0.2487935
102	0xbc8d92e9	-0.017281966
103	0xbe51d8c7	-0.2049285
104	0xbd7128b0	-0.058876693
105	0xbc82a687	-0.015948547
106	0xbdeaa016	-0.11456315
107	0xbe28cccd	-0.16484375
108	0xbd8c6747	-0.06855636
109	0x3e06f06b	0.1317765
110	0x3e2b0e4b	0.16704671
111	0x3e896290	0.2683301
112	0x3e19c400	0.15016174
113	0x3e81f8c9	0.2538512
114	0x3dbfc4b3	0.09363689
115	0x3e5ddf61	0.21667244
116	0x3df43b18	0.11925334
117	0xbe008f08	-0.12554562
118	0xbb84e622	-0.0040557543
119	0x3e01517f	0.12628745
120	0x3e3fe24d	0.1873867
121	0x3df1d116	0.11807458
122	0xbda0f939	-0.078600354
123	0x3e295ff1	0.16540505
124	0x3e7d9258	0.24762857
125	0xbe0d1bed	-0.13780184
126	0x3e82a5ba	0.25517064
127	0xbd8dc775	-0.06922809
128	0x3e053b5b	0.13010924
129	0x3c9f6bf5	0.019460658
130	0x3cbcd167	0.02304907
131	0x3dec9ff5	0.11553947
132	0xbe076590	-0.13222337
133	0x3be8809d	0.00709541
134	0xb6d2927e	-6.2755416e-06
135	0xbd1b6f34	-0.03794785
136	0x3cc8fa1b	0.024533322
137	0x3c91e9aa	0.017811615
138	0x3c17f143	0.00927383
139	0xbc21502a	-0.009845773
140	0xbc50264c	-0.012704443
141	0x3d94ef21	0.07272173
142	0xbe2c9576	-0.1685389
143	0x3d2b49dd	0.04181849
144	0xbc3983c6	-0.011322921
145	0xbd8d165c	-0.0688903
146	0x3d50ed66	0.05100765
147	0xbddabe7d	-0.10680864
148	0xbdbfc5ae	-0.09363876
149	0x3d70f560	0.058827758
150	0x3e00ebb3	0.12589912
151	0x3a208994	0.00061240164
152	0x3d7ecf25	0.062209267
153	0x3db39850	0.08769286
154	0xbc31b068	-0.010845281
155	0xbda84f2f	-0.08218228
156	0x3d76836c	0.060183927
157	0x3de7d1ef	0.113193385
158	0xbd9ba823	-0.07600429
159	0xbdf8861c	-0.12134954
160	0x3db5c769	0.08875925
161	0x3de4e2aa	0.11176045
162	0x3d42df7f	0.047576424
163	0xbda29ded	-0.07940278
164	0x3c9296d3	0.017894184
165	0xbd0a01c4	-0.03369309
166	0x3dbdeeea	0.09274085
167	0xbd5f4a88	-0.054514438
168	0x3d2c789b	0.042107206
169	0x3c445187	0.011982328
170	0x3d86895f	0.0656917
171	0x3ce68523	0.028139656
172	0xbcf7be3f	-0.030242084
173	0x3d32e32a	0.04367367
174	0x3d53c83e	0.051704638
175	0xbd04c312	-0.032412596
176	0x3dda565b	0.10661002
177	0x3bdaf0dd	0.006681545
178	0xbddf0cc7	-0.10891109
179	0x3e0b606d	0.13611002
180	0x3c618e8e	0.013766898
181	0xbd511283	-0.051043045
182	0x3c822147	0.015885008
183	0x3b19c6ac	0.0023464365
184	0xbda5eafb	-0.081014596
185	0x3db2cf20	0.08730912
186	0xbd300fbe	-0.042983763
187	0xbd162ea6	-0.03666558
188	0x3ca8d526	0.02060945
189	0x3decd5c0	0.11564207
190	0x3d8bfaf2	0.068349734
191	0xbcca4ab6	-0.024693828
192	0xbdedb3a0	-0.116065264
193	0xbe1644e6	-0.1467472
194	0x3c5529ad	0.013010425
195	0x3e393866	0.1808792
196	0xbd758f55	-0.059951145
197	0x3df0052f	0.11719739
198	0xbd8b9b97	-0.06816786
199	0x3c85fbd6	0.016355436
200	0xbddbb438	-0.107277334
201	0x3dffef2e	0.12496792
202	0xbe0f2b3f	-0.13981341
203	0xbb081d80	-0.0020769536
204	0x3d31adec	0.043378755
205	0x3e3b7246	0.1830531
206	0xbdaf6928	-0.08564979
207	0x3e3b46bc	0.18288702
208	0x3d201309	0.039080653
209	0x3d96bb71	0.0735997
210	0x3e550e63	0.2080627
211	0xbc3b2107	-0.011421449
212	0x3e61f72c	0.22066945
213	0xbdb38e3b	-0.08767363
214	0xbe78fba4	-0.24314743
215	0xbde30234	-0.110844046
216	0x3e6347c0	0.22195339
217	0xbe39dc74	-0.18150502
218	0xbd0e08b0	-0.034676254
219	0x3d44a581	0.0480094
220	0xbd539748	-0.051657945
221	0xbd6417bf	-0.05568671
222	0x3dd74498	0.1051113
223	0x3d7b95ca	0.061422147
224	0x3dcff44a	0.10154016
225	0x3b8f7c51	0.0043788333
226	0x3de134cf	0.109964006
227	0xbcad4db0	-0.021155208
228	0xbdc67ba3	-0.096915506
229	0xbe061443	-0.13093667
230	0x3db19ae4	0.08672121
231	0xbc88f65c	-0.016719036
232	0xbda48b0b	-0.08034333
233	0xbe0f1f38	-0.13976753
234	0xbe02d987	-0.12778293
235	0x3ca75217	0.020424886
236	0xbbdd3c41	-0.0067515676
237	0xbe137d1b	-0.14403193
238	0xbdbef878	-0.093247354
239	0x3d67c4aa	0.056584038
240	0x3de3bdb8	0.1112017
241	0xbdd2a887	-0.1028605
242	0xbd960130	-0.07324445
243	0x3e3aa1ce	0.18225786
244	0xb93b808c	-0.00017881597
245	0x3c6c8cd9	0.014437878
246	0xbe25a4de	-0.16176173
247	0x3d29189a	0.041283228
248	0xbcd91fec	-0.02650448
249	0xbd52e049	-0.051483426
250	0xbe56783b	-0.20944302
251	0xbd26b42f	-0.04069918
252	0xbdc11a19	-0.09428806
253	0xbe31471e	-0.17312285
254	0x3e420f69	0.18951191
255	0xbd46da6c	-0.048548147
